V2/models/checkpoints_tiny/gpt_char_best.pt (torch, 369507 bytes, 109 tensors)

tok_embedding.embedding.weight f4 [37, 32]
000000 47 ea f5 3f bb 1d be 3f a5 aa 65 3f 20 58 06 c0
       1.9212121 1.4852823 0.8971351 -2.0991287
000010 82 4b 2d 3f 0d 2c 9e bf ef b6 2a bd c3 96 cc bf
       0.6769334 -1.2357193 -0.041678365 -1.5983509
000020 2d 17 40 bf 21 83 d2 3f e2 2e c7 be 23 dd b2 bf
       -0.75035363 1.6446267 -0.38902956 -1.3973736
000030 1e c8 39 bf 12 33 0f bf f2 90 43 bf 77 cf 41 3f
       -0.7257098 -0.559373 -0.76393044 0.7570719
000040 45 c2 d1 3f f6 ff 21 be 48 aa 00 bf 90 a3 df 3e
       1.6387411 -0.15820298 -0.5025983 0.43679476
000050 bd 93 42 bf e9 ba 8a 3f 52 c4 4d 3f ea 29 d7 3f
       -0.7600668 1.083829 0.80377686 1.6809666
000060 4d 23 a3 3f 5d c5 a5 3f 4e 8a 1d 3f 63 0e aa 3f
       1.2745148 1.2950855 0.6153916 1.328564
000070 25 de 70 be b1 13 24 3d 34 b7 7d be d2 ed 5b 3f
       -0.23522241 0.04005784 -0.24776918 0.8590976
000080 a5 9f b0 bf 15 40 60 bf 25 60 62 be 81 30 db 3f
       -1.379872 -0.8759778 -0.22106989 1.7124177
000090 fa ac a5 3e 9c e6 d6 be 10 f0 9e 3e 14 0a 45 bf
       0.32358533 -0.41972816 0.31042528 -0.76968503
0000a0 41 c1 c6 bf 0a c3 7f 3f 2e 1f 62 bf 53 09 1b bf
       -1.5527726 0.9990698 -0.88328826 -0.605611
0000b0 5a b2 a3 bf d7 8b 07 40 1e 6c 9d bf ea 39 fc be
       -1.2788804 2.1179101 -1.229862 -0.49262935
0000c0 cb f5 6a bf ab 3c 27 bf ea a8 97 3d 66 5f 05 3f
       -0.917813 -0.65326947 0.07405265 0.5209869
0000d0 b8 7b f7 be 88 e5 97 3f 79 a5 51 bf 4a 49 3b bf
       -0.48336577 1.1866922 -0.81893116 -0.73158705
0000e0 03 04 b3 bf b4 c0 2c 3d 47 b6 70 bd 2b 26 2e 3f
       -1.3985599 0.042175964 -0.058767583 0.6802699
0000f0 2d 2f bf bd a9 78 eb 3f 5c 08 97 bf ca 7d b0 3f
       -0.0933517 1.8396198 -1.1799426 1.3788388
000100 28 5e b9 3f a5 20 5b 3f da 9d 0d 40 0d 76 05 3f
       1.4481859 0.85596687 2.2127595 0.52133256
000110 33 d4 b0 3e b5 31 47 be 06 86 86 bf 2d 0f a3 3f
       0.34536895 -0.19452555 -1.0509651 1.2739006
000120 e7 6c 32 be 2e fb 05 3f 75 f7 74 3d 4e d3 d7 3e
       -0.17424355 0.52336395 0.059806306 0.421534
000130 b4 25 13 3f a1 95 24 bf fd f7 0c c0 2b b4 3f bf
       0.57479405 -0.64290816 -2.202636 -0.7488429
000140 57 f7 3c 3c f1 54 ac be 20 96 ab bf f1 b9 14 bf
       0.01153358 -0.33658555 -1.340519 -0.58096224
000150 b7 f5 08 3f a1 4c 05 3f 65 cf 91 3f 69 00 5c 3d
       0.5349993 0.5207005 1.1391417 0.05371133
000160 83 fa 3e 3f da 7e f6 be a1 e0 85 bf bf 30 1a 3f
       0.74601 -0.48143655 -1.0459176 0.6023063
000170 45 42 dc bf 9d f4 54 bf 30 96 aa 3f 4b 7e f9 3e
       -1.7207724 -0.8318575 1.3327084 0.48729166
000180 b5 85 20 c0 ea ac f9 3e 7d d5 48 3f e8 68 ec 3c
       -2.5081608 0.48764735 0.7845076 0.028858617
000190 94 f0 23 3f fb 6d 15 3f ef 8a 88 3f c1 03 e6 be
       0.6403897 0.5837094 1.0667399 -0.4492474
0001a0 ee d3 3c be c2 78 40 3f 1a b2 ce 3e 48 b9 36 3e
       -0.1844022 0.7518426 0.40370256 0.17844117
0001b0 20 06 88 3e 00 d6 a2 3f 17 a0 0c bb d1 99 9b be
       0.26567173 1.2721558 -0.0021457726 -0.3039079
0001c0 c9 87 ba bf 78 cc d1 bd 76 61 19 bf 7d 4e f4 3e
       -1.4572688 -0.102440774 -0.5991434 0.47716132
0001d0 21 07 3a 3f 5b 06 bd 3d 37 09 c7 be 23 3c 07 3f
       0.7266713 0.09229728 -0.38874218 0.52826136
0001e0 83 d8 4e bc d8 1d 77 3e cf 6f 08 3e 81 8e 43 3f
       -0.012624863 0.24132478 0.13323902 0.7638932
0001f0 51 09 8c 3f 51 e3 ad 3e 8a 20 38 3f 77 38 d2 3e
       1.0940343 0.3396249 0.7192465 0.41058704
000200 5b 99 f5 3f d0 99 80 3f 70 63 b8 bf 23 cc 90 bf
       1.9187425 1.004694 -1.4405346 -1.1312298
000210 3a b6 10 be f0 f3 cf 3f 5b 80 24 3f f9 63 12 3f
       -0.14132014 1.6246319 0.64258355 0.57183796
000220 09 86 90 3f 53 76 f9 3b 85 90 e5 bf 98 c7 6d 3f
       1.1290904 0.0076129823 -1.7934729 0.9288268
000230 a7 b9 b9 be 67 c4 82 3f 13 ae 32 bf e9 40 26 3f
       -0.36274454 1.0216187 -0.69796866 0.64942795
000240 63 03 79 bf db ed 73 3f 3b 9b cd 3f ba 3f b8 3f
       -0.9727079 0.95284814 1.6062998 1.4394448
000250 9f 35 8f 3e 2a bd 59 be f8 66 38 bf 36 fc d7 3d
       0.27970597 -0.21263567 -0.7203212 0.10546152
000260 74 1b b9 3e 97 33 76 3f ed f9 e7 be 40 0d cd 3f
       0.36153758 0.9617247 -0.45307866 1.6019669
000270 73 ef 1d c0 eb 59 cf be 6b 86 97 bf 14 09 4e 3f
       -2.4677398 -0.4049829 -1.1837896 0.804826
000280 31 a4 f1 bf d4 f7 5b 3e 83 08 42 3c 2e 24 b5 be
       -1.8878232 0.21481258 0.01184285 -0.35379165
000290 05 a3 8b 3e 1a cf 37 bf a1 8a 27 3e ee d5 8a bf
       0.27272812 -0.71800387 0.16361476 -1.0846536
0002a0 b4 56 cb bf 59 4a ab 3f 7e 56 a3 3f c5 ae 1c 3d
       -1.5885835 1.3382064 1.276077 0.03825261
0002b0 9f 22 c4 bf 89 8e 40 3f 04 02 43 3f 33 c3 00 40
       -1.5323066 0.7521749 0.7617495 2.011914
0002c0 43 55 40 3d f3 f4 d8 3d ea 7d 4a bf 12 2b 62 be
       0.046956312 0.10593595 -0.7909838 -0.22086743
0002d0 6f 0e 6b bf 47 f2 c9 bf 0b 84 8f bf 43 61 08 bf
       -0.918189 -1.5777062 -1.1212171 -0.5327341
0002e0 25 3b 01 bf 51 ac be bf 3f cd f4 bf e3 5d 04 3e
       -0.5048087 -1.4896337 -1.9125136 0.1292644
0002f0 90 11 81 3f 18 89 0a bf 80 32 31 3f d5 8c 32 3f
       1.0083485 -0.5411544 0.6921768 0.6974614
000300 69 4e e2 3f 5c 47 6a bf d7 99 74 3f d4 6e ae be
       1.7680179 -0.91515136 0.9554724 -0.3406893
000310 25 af 95 bf ca d8 b3 3e 19 04 f2 3e b5 68 ac 3f
       -1.1694075 0.35126334 0.4726875 1.3469454
000320 ee 04 05 3f 34 c1 06 40 62 90 03 bf 84 6e 6d bf
       0.5196065 2.1055422 -0.51392186 -0.9274676
000330 30 82 3c 3e 82 5d 89 3f 97 89 a7 3f 67 c6 ee 3e
       0.18409038 1.0731661 1.3088864 0.46635744
000340 88 ee 4e bf 8b 43 82 bf c3 a6 f9 be da 1f 16 bf
       -0.8083272 -1.0176862 -0.48760042 -0.5864235
000350 4f 24 1b 3e e6 3d de 3e 2c 62 13 be 09 f7 13 c0
       0.1515057 0.434066 -0.14392918 -2.3119528
000360 ea 79 c8 be 17 7a 89 3f ca 9a e4 bf fa 2f c0 3f
       -0.39155513 1.0740384 -1.7859738 1.5014641
000370 74 c7 a1 3e e2 0c fd be 4b f1 84 3f 3b a0 d8 3f
       0.31597483 -0.4942389 1.0386137 1.6923898
000380 32 9b 26 bc d5 c8 d4 3f ca f4 17 3e a8 e8 86 bf
       -0.010168837 1.6623789 0.14839473 -1.0539751
000390 a8 61 13 bf 3e 10 9e 3d 45 d1 c9 3e 63 e6 fd 3f
       -0.57570887 0.07717942 0.39417472 1.9835933
0003a0 b7 eb 9b bd 17 6c 66 bf 44 af 02 c0 6c b2 89 bf
       -0.076133184 -0.9000868 -2.0419474 -1.0757575
0003b0 c5 56 a2 3c 06 0c ac 3d ba 23 47 3e c2 68 d4 3e
       0.019816766 0.08400731 0.19447222 0.41486174
0003c0 b8 5e 6c bf 16 41 8a 3e 34 57 08 bf 5c 6e ee 3e
       -0.9233203 0.27002782 -0.5325806 0.46568573
0003d0 ed a7 5d bf be 7d bb bc 3d da b1 be 38 9d ba 3f
       -0.8658436 -0.022887107 -0.34736815 1.4579229
0003e0 9f ef 9f 3f ec 8f 38 bf e8 09 59 3f 51 f7 02 3f
       1.2495002 -0.7209461 0.8478074 0.51158625
0003f0 a4 8d 08 3f 17 51 12 3f 6a c8 ff 3e 26 b8 69 3e
       0.53341126 0.57154983 0.4995759 0.22824153

pos_embedding.pos_embedding.weight f4 [16, 32]
000000 16 1d 80 3f b0 37 22 3f 2b ff 5e 3f ac f4 4f 3f
       1.0008876 0.6336622 0.87108105 0.81232715
000010 a9 c0 41 3e 74 10 25 bf 35 d2 60 bf 47 a6 c7 bf
       0.1892115 -0.6447823 -0.8782075 -1.5597619
000020 28 dd 4b bf 33 0a 12 3f 83 93 45 3f f7 81 0f 3f
       -0.7963433 0.5704681 0.7717821 0.56057686
000030 a5 8f a5 3f 18 f8 e1 3f f6 9d 55 3e 2a 9a bf 3f
       1.2934462 1.7653837 0.20861039 1.4968922
000040 74 b1 11 3f c4 99 ae 3e a5 cb 5b 3f a3 60 02 40
       0.56911397 0.3410169 0.8585761 2.0371482
000050 69 5d bd 3e 18 cd f1 3e 16 25 ce bc 8b a9 8a 3f
       0.3698533 0.47226787 -0.025164168 1.083299
000060 fd 83 00 bf 04 2b 5a bf 4e ac 67 be a9 46 12 40
       -0.502014 -0.85221887 -0.22624323 2.2855628
000070 ce 5a 47 bf be 46 84 be 66 03 ca 3f ed bb 92 be
       -0.7787293 -0.25835222 1.5782287 -0.28659
000080 c8 06 e0 bd 17 52 88 3f 68 a4 be 3f cd df 62 3f
       -0.109387934 1.0650052 1.4893923 0.8862274
000090 e9 ec 7a be 45 74 0c 3f 52 d4 61 bd 82 00 0a bf
       -0.24504437 0.54864913 -0.055134125 -0.53907025
0000a0 47 09 03 c0 e4 ef 06 3f 3f ac 30 bf a6 ce b1 bd
       -2.0474412 0.52709794 -0.69012827 -0.08681993
0000b0 f8 d0 90 be cb c0 a6 3f cb 14 ba bf 89 a7 9c be
       -0.2828443 1.3027586 -1.4537596 -0.3059657
0000c0 3f 30 fc 3d ac 46 bd bf d5 1e db bf 6a 6f 0e bf
       0.1231389 -1.4787192 -1.7118784 -0.55638754
0000d0 d5 06 08 3f 16 fc ac bf 16 56 9f 3f b6 31 03 c0
       0.53135425 -1.351443 1.2448146 -2.049909
0000e0 91 c8 b6 3f dc 0a 2b 3e c6 d0 92 bf 8c 9a 1d 3f
       1.4279958 0.16703361 -1.1469963 0.61563945
0000f0 e2 e4 53 bf ba 0e f0 be 2c e8 9e 3e e4 15 39 3f
       -0.8277112 -0.46886235 0.31036508 0.7229903
000100 a4 ba 21 bf 06 39 0c 3f cd d4 46 bf b5 93 9e 3d
       -0.63175416 0.5477451 -0.7766846 0.07743017
000110 fc a5 44 bf ca c8 71 3f 26 57 e0 3e 6d 56 8f 3f
       -0.7681577 0.94447005 0.4381649 1.119825
000120 2e 7e 00 3f ba 06 92 bf 48 5b 40 bf e9 12 40 3d
       0.50192535 -1.1408303 -0.75139284 0.046893034
000130 b1 3e 33 bf 57 7b 0d bf 99 8f 53 3f 63 e3 11 40
       -0.70017534 -0.55266327 0.8264099 2.2795036
000140 4a 6d e2 bf 22 50 80 bf c8 46 25 3f 4a fd 82 3f
       -1.7689602 -1.0024455 0.6456113 1.0233548
000150 2e 8f 74 3f 96 c2 06 3c ef dd 88 bf 8e 71 43 bf
       0.95530975 0.008225104 -1.0692729 -0.76345146
000160 53 e8 1c 40 88 09 f6 bf 9e aa 9e 3e a9 30 bd bf
       2.45168 -1.9221659 0.30989546 -1.4780475
000170 f8 e3 f1 be 85 42 d8 bd 1a 4d 1f bf 13 be a2 bf
       -0.4724424 -0.105595626 -0.6222702 -1.2714256
000180 6d 32 9d be 46 ec 91 be b7 9c 8a 3f 1c 94 2c 3e
       -0.30702534 -0.28500575 1.0829076 0.16853374
000190 2a d8 01 3f ab 96 7d bf 70 41 91 3f e2 ba 81 3e
       0.50720465 -0.99058026 1.1348095 0.25337893
0001a0 53 5d ee be a7 5b 6e bf 6d e6 25 be 32 6c 30 bf
       -0.46555576 -0.931086 -0.16201182 -0.6891509
0001b0 f7 4c 0f be 0f 19 d2 3f 62 e0 c6 bf 37 ca 27 be
       -0.13994204 1.6413897 -1.5537226 -0.16385733
0001c0 ad d4 20 3d d2 64 a8 3d d9 f8 2e 3f 30 67 7b 3f
       0.039265323 0.08222355 0.6834846 0.98204327
0001d0 f3 91 45 bf 2f 9a a4 bf 41 96 1f bf d7 48 af 3f
       -0.77175826 -1.2859553 -0.62338644 1.3694104
0001e0 15 0a 7c 3e 93 37 e8 be 8b 4f 97 bf 53 1b b6 3f
       0.24613221 -0.453549 -1.182115 1.4227089
0001f0 df 08 9f bc d8 cf ee 3a 39 05 7d bf 84 ec 99 be
       -0.01941341 0.0018219901 -0.98836094 -0.3006326
000200 cb 80 41 3f 20 7a 71 bf bd e6 15 c0 da 88 4a bf
       0.7558715 -0.9432697 -2.3422081 -0.7911507
000210 57 e2 51 3f 09 d3 9c 3f 05 d8 73 bd 2a 13 93 3f
       0.8198599 1.2251903 -0.059532184 1.1490223
000220 c5 83 9c 3f e2 d1 a1 be f7 82 37 bf 08 60 ba be
       1.2227713 -0.3160544 -0.7168421 -0.3640139
000230 56 c8 e0 3e 15 54 4e 3e 12 26 01 bf f8 90 0b bf
       0.43902844 0.20149262 -0.50448716 -0.5451808
000240 da 33 0d 3d 48 07 c4 bf 3b 55 0a 3f b6 3d cb be
       0.034473278 -1.5314722 0.540363 -0.3969552
000250 a0 68 f8 bf b2 f8 c5 3c 41 e2 f5 be ec 53 9e bf
       -1.9406929 0.024166439 -0.4802418 -1.2369361
000260 1e 7f a9 be 26 03 25 3b 87 38 5a bd d0 a9 96 3f
       -0.33104795 0.0025178879 -0.053276565 1.1770573
000270 a5 99 de 3f 8a 68 04 40 04 61 65 be fb ca ac bf
       1.7390639 2.0688806 -0.2240029 -1.3499445
000280 50 87 07 bf 71 d8 31 bf ae ad f1 3e 30 66 b8 bf
       -0.52940845 -0.6947089 0.4720282 -1.4406185
000290 0a a9 0d 3e 4c 6f 22 3f 6b 33 86 bf 12 78 07 bf
       0.13834015 0.63451076 -1.0484442 -0.5291759
0002a0 d4 28 92 bf 41 bb 0f be 59 03 23 bf f9 57 d4 3e
       -1.141871 -0.14036275 -0.63676983 0.41473368
0002b0 e0 bb a2 3e d4 49 54 bf 29 3a ff be 2d 3e 2b 3f
       0.31783962 -0.8292515 -0.4984906 0.6689175
0002c0 6e 6d 0c 3f f0 a2 9d 3f c1 f5 4f be fd 75 b1 3f
       0.54854476 1.231535 -0.20308591 1.3864132
0002d0 a4 de 55 bf 10 b7 af 3e 75 11 8d be 64 85 81 be
       -0.8354285 0.34319353 -0.2755238 -0.2529708
0002e0 99 bf 92 be 48 84 22 bf 3c eb 32 bd 26 33 87 be
       -0.28661802 -0.63483095 -0.04368137 -0.2640621
0002f0 b2 7d b9 3f d5 bd 31 3d 3c 8d 0a bf 72 a8 fe be
       1.4491484 0.04339393 -0.54121757 -0.4973789
000300 d9 f2 37 40 4b 62 96 bf f4 26 f9 3f 86 4e 96 bf
       2.8741972 -1.1748747 1.9465013 -1.1742713
000310 53 9d cd bf 2e 30 a8 3d 92 47 6c bf e1 1d c1 be
       -1.6063637 0.082123145 -0.9229671 -0.37718108
000320 56 46 7b bf f0 55 1d 3e 03 a1 3c 3f 08 ec b2 bf
       -0.981542 0.15364814 0.73683184 -1.3978281
000330 bd 69 97 3f 45 0f 12 3d 39 5f 00 40 51 a5 ee bd
       1.1829144 0.035659093 2.005812 -0.11652625
000340 ea 0f 93 bf dc 0b 65 3f 08 fe 36 be 58 4b a4 bf
       -1.1489232 0.8947122 -0.17870343 -1.2835493
000350 8c 5f 12 3f 37 cf bb be 2d 40 04 bf 9a 6e ce be
       0.5717704 -0.3668153 -0.51660424 -0.40318757
000360 09 78 e1 3f 14 7e 44 3e 2a e2 e3 3f 3d 42 3a be
       1.7614757 0.1918872 1.7803395 -0.1818933
000370 a5 a8 88 3f df b5 a7 3f 3a 4b ad 3e e1 e9 18 3e
       1.0676466 1.3102378 0.33846456 0.14932968
000380 d6 d3 84 3e 73 45 98 bf 3f 4c 85 bf b2 e7 ff be
       0.25942868 -1.1896194 -1.0413893 -0.49981457
000390 43 80 67 bf 1b ba 09 3f 1b 9e 62 bf 64 85 4b 3f
       -0.90430087 0.537996 -0.885225 0.7950041
0003a0 c9 12 28 3f b7 0c 98 be 28 45 7a 3e 28 5d ad bf
       0.65653664 -0.296972 0.24440444 -1.3544054
0003b0 b0 e6 54 bf 9c 07 08 bf 17 0e b9 3d 5a fa 5c 3f
       -0.831645 -0.5313661 0.090358905 0.86319506
0003c0 cf f8 82 bf 57 c8 13 3f f7 ad 83 3f 3b d9 4c bf
       -1.023218 0.5772757 1.0287465 -0.8001897
0003d0 98 a3 b9 3e eb a3 d6 3e 5d 83 02 40 96 8b 47 bf
       0.36257625 0.41921934 2.0392678 -0.77947366
0003e0 51 77 9c bf c0 f8 f0 bd d7 0a 9e 3e 29 5b e0 be
       -1.2223912 -0.11766195 0.30867645 -0.4381955
0003f0 0e 51 46 bf 8f 83 3f bf 56 5a c3 3f 4d a9 ca bf
       -0.7746743 -0.7481012 1.5261943 -1.5832916

blocks.0.ln1.ln.weight f4 [32]
000000 ac e2 81 3f a6 42 81 3f 5b 83 7f 3f 27 85 80 3f
       1.01473 1.0098464 0.9980981 1.0040635
000010 36 8c 81 3f 31 cb 7f 3f 54 75 80 3f d1 73 80 3f
       1.0120914 0.9991942 1.0035806 1.0035344
000020 06 74 81 3f f4 ce 80 3f af 40 81 3f 15 e9 80 3f
       1.0113533 1.0063157 1.0097865 1.0071131
000030 d3 71 7c 3f 98 c8 7c 3f c2 4f 7f 3f a1 43 81 3f
       0.9861118 0.9874358 0.99731076 1.0098764
000040 2c 6d 80 3f 73 b7 81 3f f8 08 7f 3f 6c 47 80 3f
       1.0033317 1.0134109 0.9962306 1.0021796
000050 33 7a 81 3f 30 b7 81 3f b1 87 81 3f 06 c5 81 3f
       1.0115417 1.0134029 1.0119535 1.0138252
000060 3e fc 7c 3f 23 87 7f 3f 9a cb 81 3f 5d 59 81 3f
       0.9882239 0.9981558 1.0140259 1.0105397
000070 2f 4e 7f 3f 4d 13 80 3f b9 41 80 3f a5 f5 7f 3f
       0.99728674 1.000589 1.0020057 0.999842

blocks.0.ln1.ln.bias f4 [32]
000000 a7 12 7a bc 1e b4 72 bc 28 2c 5e bc 95 02 e6 bb
       -0.015263236 -0.014813451 -0.013560332 -0.007019351
000010 75 f0 f0 bb c4 aa 5b 3c b5 9a 74 bc 48 c7 f3 bb
       -0.0073528835 0.013407413 -0.014929463 -0.0074395277
000020 a6 1a 6c bc 89 3a 60 bc 26 54 3c 3c f2 c3 70 bc
       -0.01441065 -0.013685831 0.011494672 -0.0146951545
000030 3f bd 6c 3c 55 2d 70 bc 0e fd 70 3c 13 26 24 3c
       0.014449417 -0.0146592455 0.01470877 0.010018843
000040 b1 71 04 3c 4b 32 75 bc 7c c8 99 b9 10 2f 65 3c
       0.008083747 -0.014965604 -0.00029331807 0.013988271
000050 39 3b 6a bc ef 53 7c bc 05 83 14 3c 34 32 79 bc
       -0.014296346 -0.015400871 0.009064441 -0.015209723
000060 aa b9 43 bc 42 31 0c 3c 34 2d 77 bc 07 44 70 3c
       -0.011946121 0.008556666 -0.015086461 0.0146646565
000070 8d c7 20 bc 10 2f 0d 3b 2a 5e a9 bb dc c2 5a 3c
       -0.009813202 0.0021542944 -0.005168696 0.013352122

blocks.0.attn.q_proj.weight f4 [32, 32]
000000 55 a8 cb 3c 22 bc a4 3d e0 a6 01 bd 68 37 62 bd
       0.02486054 0.08043696 -0.031653285 -0.05522862
000010 e2 66 d7 bd c6 47 88 3d b5 58 35 3e 59 d2 c7 bd
       -0.1051767 0.06654315 0.1770962 -0.097569175
000020 d8 8d a3 3d b2 f8 c7 3d 4d 09 13 3e 86 4f 9c bc
       0.07986039 0.09764232 0.14359017 -0.019080888
000030 c9 ba f9 3b b0 bf 0a 3e 21 5d fb 3d 2e f8 3d 3e
       0.0076211435 0.13549685 0.12273622 0.18551704
000040 df 80 69 bd a3 7f 8e 3d 5b 04 e4 3d f7 df f7 bd
       -0.057007667 0.069579385 0.11133643 -0.12103265
000050 d8 0b 26 3d eb ba 46 bd f5 e6 d6 3d d1 ad 91 bd
       0.04053864 -0.048518103 0.1049327 -0.07113231
000060 6d bc 02 3b d4 66 d3 3d 9c c2 2b be ac 25 21 be
       0.0019948736 0.10322347 -0.16773456 -0.15737027
000070 ea f0 c2 bd 8e 63 ee 3d f0 8c ea 3d da 88 f0 bd
       -0.09518607 0.11640082 0.11452663 -0.11744852
000080 9e f2 2a 3d 62 82 b7 bd a6 73 99 bd 5b 32 23 3e
       0.041735284 -0.089604154 -0.07492761 0.15937178
000090 14 1f b3 3d cd 4c 1e bd d0 7d d7 3c 8c c0 f9 3c
       0.08746162 -0.03864746 0.02630511 0.030487321
0000a0 9c 3e 42 3d b8 5f 79 bd 17 17 e6 bd 79 78 eb 3d
       0.04742299 -0.0608823 -0.11234873 0.11497588
0000b0 cd ed de 3c 1d 3b 8b 3d 37 4f 93 bd 21 7d a2 3d
       0.027213002 0.06798384 -0.071928434 0.07934023
0000c0 ea 23 04 3e 0d 6c d2 3d 4e 4c 50 3d 6b 02 36 3e
       0.12904325 0.10274515 0.05085402 0.1777436
0000d0 15 ba a3 3b 7f 02 24 3d 31 b8 28 3e 0d 6c 3a 3e
       0.004996548 0.040041443 0.16476513 0.1820528
0000e0 e0 21 9a bd da 3b 2d 3e 07 6d 8a 3d ef 29 c2 bc
       -0.075259924 0.16917363 0.067590766 -0.023701636
0000f0 5a 5c 15 3e 02 05 c3 bd 12 93 da 3d bd 17 2b 3e
       0.1458601 -0.095224395 0.10672583 0.16708274
000100 b2 81 08 be 23 82 d3 bd 0e 17 32 be 18 60 01 bd
       -0.13330725 -0.10327556 -0.17391607 -0.031585783
000110 79 a4 2b be 15 d0 70 bd 7c 26 6c 3d 88 00 05 3e
       -0.1676196 -0.058792192 0.05765389 0.12988484
000120 34 03 c0 3d 08 f9 d9 3d 60 47 a2 3d 8e 0a e8 bd
       0.09375611 0.10643202 0.0792377 -0.11330138
000130 38 8e 1a be f1 ce 8a 3c b3 8c 2f 3e c6 0f 73 3c
       -0.15093315 0.01694438 0.17143516 0.014835304
000140 8f cd 4c bc 8d df ed bd dc 66 a6 bd 81 7e 10 be
       -0.012500181 -0.116149046 -0.081250876 -0.14110757
000150 e0 94 06 3e 12 d1 01 bd e8 72 1f be 95 9d 0f 3c
       0.13142729 -0.031693526 -0.15571177 0.008765598
000160 af be 55 3c 04 ea be bc 2f a9 5b 3d 4b d5 ce 3d
       0.013045951 -0.023304947 0.053628143 0.10099276
000170 d3 c7 1e be 68 6e 0f be e7 54 39 bb 45 9d 24 be
       -0.15505914 -0.1400696 -0.0028279366 -0.16075619
000180 71 ef 1c be 0c 34 1b 3e 5a 8b 56 bc 1f 14 ab bd
       -0.15325715 0.15156573 -0.013094747 -0.08353447
000190 05 ee 71 bd a7 73 05 be ce a0 0e 3e 8e c0 24 bd
       -0.059064884 -0.13032399 0.1392853 -0.040222697
0001a0 e7 29 b6 bd cf 66 0c be 03 f4 c9 3d 26 96 b9 bc
       -0.08894711 -0.13711093 0.09860995 -0.022654604
0001b0 25 0e 16 bc 64 98 5b bd 1e 45 c3 bd 1e 73 c5 3c
       -0.009158646 -0.053612128 -0.095346674 0.024102744
0001c0 b7 20 0b 3e 3f fb de bd ba 51 3f 3c e0 29 0f be
       0.13586698 -0.10887765 0.0116772 -0.13980818
0001d0 c7 79 a6 bd 1c 75 25 3e 24 75 1a 3c bc b2 36 3e
       -0.08128696 0.16157955 0.009427343 0.17841619
0001e0 b3 da f4 bc 94 57 b0 bd e1 c0 c8 bd 2d 72 18 3e
       -0.02988944 -0.08610454 -0.09802414 0.14887305
0001f0 82 ab 15 be 12 28 bd 3d 91 5d 1a 3d ad d0 2e 3d
       -0.14616206 0.092361584 0.037686888 0.042679477
000200 71 ce b2 3d 99 bc 19 bd 55 1c e5 3d 98 df 0f be
       0.08730782 -0.037533376 0.111870445 -0.14050138
000210 4b 70 66 bd e9 5c f8 3d d7 66 74 3d 73 e9 0e bd
       -0.056259435 0.12127096 0.05966839 -0.034890603
000220 fb 5f 55 bd 1f a6 c2 bd e7 24 f1 3d 47 89 c9 ba
       -0.052093487 -0.09504341 0.11774617 -0.0015375995
000230 1c 99 a6 bc 44 f3 5a 3d d2 2a 0c 3e ff 8a 9b bd
       -0.02033668 0.053454652 0.1368821 -0.07594871
000240 c3 dc 44 bd f3 89 e7 3d 54 9f d5 3d 43 ca ad bd
       -0.048062097 0.113056086 0.1043078 -0.08485844
000250 b0 d3 3d be 6e d3 9a 3c 2f 16 a3 3d c1 24 1c 3d
       -0.18537784 0.018899646 0.079632156 0.03812099
000260 7c cd f4 3d 47 13 19 be 46 0f a0 3d 49 90 cd bd
       0.119532555 -0.1494876 0.07815413 -0.10037286
000270 64 9b e5 3d d3 29 0a 3e bf 2b 6f 3d dd 9e 16 3e
       0.11211279 0.13492517 0.05839133 0.14709039
000280 54 91 d9 bd 8b 64 1c be e8 15 2d be 0f 28 ef 3d
       -0.10623422 -0.15272729 -0.16902888 0.116775624
000290 b3 99 88 3d 53 04 06 be b8 ce aa 3d 71 88 26 3e
       0.06669941 -0.13087587 0.0834021 0.16262986
0002a0 b0 01 2c be 0b 50 09 3e bd 48 a3 3c 1f 3b 9c 3c
       -0.16797519 0.1340944 0.019932145 0.01907116
0002b0 1d d6 25 3e 06 98 1f 3e 0c e1 94 3d 37 9a 07 3e
       0.16194959 0.15585336 0.07269487 0.13242422
0002c0 57 d0 8a 3d 88 7a fd 3c d4 74 24 be 8a 8b 0c 3d
       0.06778019 0.030942217 -0.16060191 0.034312762
0002d0 88 38 f1 bd 58 0a 7e 3d 0f 78 cf 3c de 6d df 3b
       -0.117783606 0.062021583 0.025325803 0.006818517
0002e0 03 d7 fc bd 85 0e c8 bd b2 1a 0b 3e 1c f4 a1 3d
       -0.12345698 -0.097683944 0.13584402 0.07907888
0002f0 cb e5 ab 3d d7 3c 6b bd 3f 01 27 bd ad ee 4c bd
       0.08393439 -0.05743107 -0.040772673 -0.050032306
000300 ad 16 07 3e 29 59 91 bd c9 ac e9 3d b5 e0 f7 3d
       0.13192244 -0.07097084 0.11409909 0.12103406
000310 43 26 1d be 0d 36 1f ba d7 a1 f3 bc 17 49 d0 bd
       -0.15346627 -0.0006073423 -0.029740257 -0.10170191
000320 4c 1a 9c 3d 71 ab a6 bc 39 d2 1c 3e ca 1f e3 bd
       0.07622203 -0.020345422 0.15314569 -0.11090048
000330 73 64 be 3d 7d 9e 1d be df 25 b4 bd 87 2f dc 3b
       0.09296503 -0.1539249 -0.08796286 0.006719533
000340 c8 c8 07 3e 5e a5 b9 3d f6 b2 1c be f1 22 a7 3c
       0.13260186 0.090647444 -0.15302643 0.020402404
000350 4d cb c9 bd 9a e0 d9 3b f9 fa 16 be 7e da 25 bd
       -0.0985323 0.006649089 -0.14744176 -0.040491574
000360 45 7d f4 3d 67 70 22 be 51 b4 26 be 41 33 c4 3c
       0.11937956 -0.1586319 -0.16279723 0.023950221
000370 68 d6 52 3c eb 49 0a bd 89 4c 18 3e 32 f5 d6 bd
       0.012868501 -0.0337619 0.14872946 -0.10495986
000380 2c 75 dc bd 02 28 0f be 0d 65 07 bd 33 56 53 bd
       -0.10764536 -0.13980106 -0.033055354 -0.051595878
000390 d5 e4 cb 3d ca 79 11 bc 1e 8d 55 3d 1b c2 80 bd
       0.099557556 -0.008879134 0.052136533 -0.06287023
0003a0 f4 56 0c 3e 28 fe 0d 3e 09 b0 1d be 5a 3f 53 bd
       0.13705045 0.13866484 -0.15399183 -0.05157409
0003b0 1a f0 0d be e3 3c 9e 3d 4f 00 1f be 11 9f bf bd
       -0.13861123 0.07726457 -0.15527461 -0.093565114
0003c0 69 0e 2a 3e 4b 6b 2d be 15 7e 0a 3e 99 6f 6c 3c
       0.1660706 -0.1693546 0.13524659 0.014430904
0003d0 60 1f 10 3e 58 89 a9 bd a4 77 02 3e c4 9b 7b 3c
       0.14074469 -0.08278149 0.12740952 0.015356962
0003e0 11 16 a7 3c 32 36 ee 3d 3c ea 2a be 55 cc 11 be
       0.020396264 0.11631431 -0.16690916 -0.14238103
0003f0 1e bb 28 3e fb 65 d1 bd 6f 5f f3 bd 88 e5 6a 3a
       0.1647763 -0.10224529 -0.11883437 0.00089605944

blocks.0.attn.q_proj.bias f4 [32]
000000 b2 38 50 3c be ed 1d 3e 3d c9 25 3e 27 2b b4 bd
       0.01270883 0.15422723 0.16190048 -0.08797293
000010 b2 d1 c2 3b 7a f5 cf bd 0b ed 51 3d 03 8c 31 be
       0.005945408 -0.10154243 0.051251452 -0.17338566
000020 60 9b 84 3d 09 6c 73 bd 06 f0 98 3d 89 0b 4d 3d
       0.06474948 -0.059429202 0.07467656 0.05005983
000030 bb 14 b0 bd bb 88 d4 3d 3a ea b2 3d 5d 70 17 be
       -0.08597704 0.10377642 0.087360814 -0.14788957
000040 42 bb 40 3e c4 2e 24 3e 4a 7b dd 3d 50 a5 68 bc
       0.18821433 0.16033465 0.10814531 -0.01419957
000050 ba 01 88 3d 01 38 c5 bd f1 13 95 bd b4 78 92 3d
       0.06640954 -0.096298225 -0.07279194 0.071519285
000060 11 5a 89 3d ce 18 a6 3d 0d a3 26 be dc 0a 11 3e
       0.06706632 0.081102 -0.16273136 0.14164299
000070 8d f1 b2 bd 62 64 12 3e 82 43 07 3e c6 5c a2 3d
       -0.087374784 0.14296106 0.13209346 0.079278514

blocks.0.attn.k_proj.weight f4 [32, 32]
000000 01 a2 29 3e d2 18 e7 3d 3c cd e3 3d 81 73 65 bd
       0.16565706 0.11284031 0.1112313 -0.056018356
000010 d5 dd 32 3e a1 70 4e 3d 57 5f cb 3d 6f f8 48 bd
       0.17467435 0.05040038 0.09930294 -0.04906505
000020 a1 46 ec 3d 64 fb 2a 3e 37 bb 00 be cc 4f 0d 3e
       0.11536909 0.1669746 -0.12571417 0.13799971
000030 fd 48 fe bd f7 85 f6 bd 03 8f 0a be 35 33 76 3d
       -0.12416265 -0.120372705 -0.13531117 0.06010743
000040 c5 6a 10 be 28 82 5f bd 2e 72 ca bd 70 0d 6e 3d
       -0.1410323 -0.054567486 -0.09885059 0.058118284
000050 b1 fc 39 be 80 c5 bb bd e6 9f 02 bb dd 3f c4 3c
       -0.181628 -0.091685295 -0.0019931733 0.023956234
000060 f4 59 b4 bd 2d c2 6a 3d fe 2e 05 be 0d 6c 17 be
       -0.0880622 0.057314087 -0.13006207 -0.14787312
000070 0b 11 80 bc 3f dd dd bd cb 70 e3 3d d7 8a dd bd
       -0.015633127 -0.10833215 0.11105498 -0.10817497
000080 97 c6 ad bc c3 1d 8b 3d d4 08 18 be 8c 67 0d 3e
       -0.02121286 0.06792786 -0.14847118 0.13809031
000090 61 40 af bd d9 95 39 bd 1b fa da bd e2 1f 81 bd
       -0.08557201 -0.04530892 -0.10692235 -0.06304909
0000a0 5d a4 92 bd 8d 31 29 be 78 21 83 3d 5c f3 c8 bb
       -0.07160256 -0.16522808 0.06402868 -0.0061325263
0000b0 b9 3c 36 3e 7a 58 e9 3d d7 fe 1a 3e ff c2 39 3d
       0.17796601 0.11393829 0.15136276 0.04535198
0000c0 e9 e4 bf 3d b1 86 24 3e f5 c7 1b 3e c7 b9 0e be
       0.09369833 0.16067006 0.15212996 -0.13938056
0000d0 80 f1 1d bd 20 a0 30 be 49 ff 87 3c 66 f9 82 bd
       -0.03856039 -0.17248583 0.016601222 -0.06395225
0000e0 59 2f 22 3e fe b6 c6 3c cb 70 d0 3b 73 08 ff bd
       0.15838374 0.02425718 0.006361102 -0.124527834
0000f0 4f 1b 11 be b6 29 09 3d 7e 0d a4 bd 9d 40 9f bd
       -0.14170574 0.033487044 -0.08010386 -0.07775996
000100 1e a3 f7 3d 0d 71 bd bd a7 20 91 bd ea b0 fd 3d
       0.12091659 -0.09250078 -0.07086306 0.12387259
000110 7f 0a 86 3d 99 01 cb bd 56 df 61 3d c0 a2 b7 3d
       0.06544971 -0.09912414 0.05514463 0.08966589
000120 bf e9 28 be 2a ce 1d 3d 48 67 3f 3d 45 e4 08 bc
       -0.16495417 0.03852669 0.046729356 -0.008355205
000130 1b a9 30 3e 41 1e e9 bd 3f 68 d3 3d b3 86 b4 bd
       0.17252009 -0.113827236 0.10322618 -0.08814754
000140 b6 45 20 be 9f 61 fa 3d 3c 87 b2 bd 14 3a 85 3c
       -0.15651593 0.12225651 -0.087172 0.016263045
000150 9c 6f c6 3d de c9 1e be 54 f8 21 be 4e fe 83 3d
       0.096892565 -0.15506694 -0.15817386 0.06444989
000160 88 01 20 3e be 3d df bc f0 49 ed 3d cd af 82 3d
       0.15625584 -0.02725112 0.11586368 0.063811876
000170 50 e8 45 3d b5 7f e6 bd 0b 61 33 3e c1 f5 b7 3d
       0.048317254 -0.11254827 0.17517488 0.08982421
000180 d5 6c b9 3c 1f a3 04 3e fd 6a 11 be 82 ad 2e 3d
       0.022634903 0.12952851 -0.14200969 0.04264594
000190 7f 7d 9a bd a9 02 d7 bb 3e 92 49 3d b6 00 92 3d
       -0.07543468 -0.0065615964 0.049211733 0.07129042
0001a0 d1 c4 e8 3c f8 70 0f be 2c 3e d3 bd 07 35 d5 bb
       0.028414162 -0.14007938 -0.10314593 -0.0065065655
0001b0 54 f0 0e bd ac 0e 1f be 85 56 39 3e a4 88 bd 3c
       -0.034897164 -0.1553294 0.18099411 0.023136444
0001c0 45 6e fa bd e5 b2 a9 3d bc 60 9e 3d 9c 52 9f bd
       -0.122280635 0.082860745 0.07733294 -0.07779428
0001d0 14 21 a2 3d 25 34 e2 bd 80 a0 8d 3d a1 f0 2e 3e
       0.079164654 -0.11045102 0.069153786 0.1708398
0001e0 08 ed e1 3d 3f 0e b3 3d 50 d0 45 bd 18 c6 2a 3d
       0.11031538 0.087429516 -0.048294365 0.041692823
0001f0 11 9c 8b 3d e8 1d ff 3c 3d 5b 19 bd 71 1b 1a 3d
       0.06816877 0.03114219 -0.037440527 0.037623826
000200 d0 39 8f bd 9e 6c d8 bd 31 03 1e be bc ca 15 be
       -0.06993449 -0.10567592 -0.15430905 -0.14628118
000210 d3 83 eb bd 45 f1 38 3e 72 ec 0f 3d af b7 20 be
       -0.11499753 0.18060787 0.0351376 -0.1569507
000220 f6 3a c9 bd 4f ae 05 3d 82 cd 33 bd fe 8d 78 bd
       -0.09825699 0.032636937 -0.04389716 -0.06068229
000230 56 e2 8a bd 30 4d 53 bd 03 db 3a 3c e6 68 15 b9
       -0.067814514 -0.051587284 0.0114047555 -0.00014248825
000240 4a 9a f4 3d 4c d6 d6 3d 8b 02 1a 3e de 88 ae ba
       0.11943491 0.10490093 0.15040033 -0.0013315936
000250 36 7b b5 bd 3a 98 24 3b 74 62 d8 bd a2 50 91 3d
       -0.08861391 0.0025115148 -0.105656534 0.070954576
000260 a3 45 53 bc 4c f1 51 bd d8 2c 16 be 94 42 c1 3d
       -0.012895021 -0.05125551 -0.14665544 0.09436527
000270 7b a5 cf 3d e7 3e 1b 3e de 29 74 bd 9c 47 6e 3d
       0.10138985 0.15160714 -0.05961024 0.05817376
000280 e8 cd 7e 3b d4 77 dd bd 58 53 d6 bd 56 99 b6 3d
       0.0038880054 -0.10813871 -0.10465115 0.08915965
000290 e4 02 bb bd ec ea 05 3e 04 cf 7e 3d f0 8e 4c 3d
       -0.09131411 0.13077897 0.062209144 0.049941003
0002a0 91 e5 d4 3d 45 72 c3 3d 23 eb af 3d 7c 24 ba 3d
       0.10395349 0.095432796 0.08589771 0.0908899
0002b0 3a 96 99 bd 93 d8 c8 bd de 7e e8 bc 0b 7c dd 3d
       -0.074993566 -0.09806933 -0.028380807 0.10814675
0002c0 dd ec f2 3d 18 f7 06 3e 4c a6 8a bd 2b 42 3d bc
       0.11861584 0.13180196 -0.0677 -0.01155142
0002d0 a5 b3 03 be 5c 5b cd 3d 4f 96 f3 bd 2e 23 88 bd
       -0.12861498 0.10027191 -0.118939035 -0.06647335
0002e0 0f 3c 13 3e e3 bc 06 3d 13 58 ad bd 4b 41 e4 bd
       0.1437838 0.03289498 -0.084640644 -0.11145266
0002f0 63 d9 ec bd e0 cb 0a 3e fc 63 26 be 26 4c 27 3e
       -0.11564901 0.13554335 -0.16249079 0.16337642
000300 0c 33 0e 3e 7c ac 2d 3c a5 dd d2 bb 5c 9e 03 3e
       0.1388666 0.0106002055 -0.0064351135 0.12853378
000310 4f b9 9a 3d 6f d9 33 3e 67 66 12 3e e8 5a f2 bd
       0.07554876 0.17563413 0.14296876 -0.11833745
000320 15 bf c8 3d da 57 b6 3d 81 64 eb bd 26 2c 9c 3d
       0.09802071 0.08903475 -0.11493779 0.07625608
000330 a7 6e bd bd 45 00 d9 bd 78 d4 b6 3b 2d 21 b0 bc
       -0.09249621 -0.105957545 0.0055795275 -0.021500194
000340 bb df 38 bd 6f 0f fc bd 2c a7 c2 3d 7e b1 3a 3e
       -0.04513524 -0.12307631 0.09504542 0.1823177
000350 5c d3 2d bd 4c 93 02 be 9c 52 ac bb 9a 6a 1f be
       -0.042437896 -0.12751502 -0.0052588712 -0.15568009
000360 1b 3a 0d be a8 ba 82 bd 41 46 d5 3d 10 36 04 be
       -0.13791697 -0.06383258 0.104137905 -0.12911248
000370 97 d5 e3 bc 87 5a b8 bd 77 bb 1e be ee 86 f0 bc
       -0.027811809 -0.09001642 -0.155012 -0.029361214
000380 a3 56 30 bc 2d 64 c6 bc e1 ad f8 3d ff ac 95 3d
       -0.010762843 -0.02421769 0.1214254 0.07308387
000390 01 08 ea 3d 04 d2 7f 3d 43 b7 9a 3c 6e ea bb 3d
       0.11427308 0.062456146 0.018886214 0.09175573
0003a0 84 90 e5 bd cf 76 c3 3d b0 70 a1 3d 35 aa 98 bd
       -0.11209205 0.09544145 0.078828216 -0.074543394
0003b0 6d 9a a7 bb fc b2 04 be 28 a7 15 be 76 ed eb 3b
       -0.0051148445 -0.12958902 -0.14614546 0.0071999384
0003c0 e2 c5 c7 3c d7 ba dd bc 17 b9 49 3d ef 95 0a be
       0.02438635 -0.027066631 0.04924878 -0.13533758
0003d0 62 44 bd bd 8b 4a f1 3d 30 71 32 be dc a0 0b 3d
       -0.092415586 0.11781796 -0.1742599 0.034088954
0003e0 f1 41 07 3e 95 b6 01 3e 3a ea 61 3d 13 b1 29 be
       0.13208748 0.12667306 0.055155016 -0.16571455
0003f0 19 d8 b7 3c 57 e9 68 bd 88 55 64 bd e3 5c 0e 3e
       0.02244191 -0.056863155 -0.05574563 0.13902621

blocks.0.attn.k_proj.bias f4 [32]
000000 f0 a9 2b 3e c1 49 5b 3d 4c 05 12 3e 11 47 01 be
       0.16764045 0.053537134 0.14259833 -0.12624766
000010 95 e9 1f bd b5 68 5c 3d 13 98 cc 3d e1 51 c1 bd
       -0.03904112 0.053810794 0.09989943 -0.09439445
000020 6f 5d e6 3d 23 4b 6e bd e4 3e c1 bd e7 ac 0d 3d
       0.1124829 -0.058177125 -0.094358236 0.03458872
000030 60 2e 10 be b9 21 26 be 2a ba 70 3d 21 a0 76 3d
       -0.1408019 -0.16223802 0.05877129 0.060211305
000040 9a 36 8b 3d 39 f1 bd bc 72 64 04 be 04 6d 11 be
       0.06797524 -0.023186313 -0.12928942 -0.14201742
000050 0b 37 2d 3e 6a ef 1c be e8 3f 5a 3d f0 04 13 3e
       0.16915528 -0.15325704 0.053283602 0.14357352
000060 d0 49 0a 3e 8a 46 e4 bd 7f 7b 69 bd ba b9 10 be
       0.1350472 -0.11146267 -0.05700254 -0.14133349
000070 02 1c e3 3d 25 df 29 be 3a a1 26 be 60 b7 f1 bd
       0.110893264 -0.16589029 -0.1627244 -0.11802554

blocks.0.attn.v_proj.weight f4 [32, 32]
000000 e8 90 22 3e f7 28 ee 3d 9e 5c 03 3e fd 5c 18 3e
       0.1587559 0.11628907 0.128283 0.14879222
000010 a6 df 90 bd 40 68 b8 bd 2a 99 e8 bd 71 b5 89 3d
       -0.070739076 -0.09004259 -0.11357339 0.0672406
000020 ff e7 a7 3d f1 01 dd 3c 66 3a 19 be 3b 2c af 3c
       0.081985466 0.026978465 -0.14963683 0.021383395
000030 de 19 a3 bd 2b 1d 46 bd ba a2 ce bc 9c a0 bb bb
       -0.07963918 -0.04836766 -0.025224078 -0.0057259332
000040 1f 36 2c be a7 21 29 3e 06 71 b5 bd a3 25 83 3d
       -0.1681752 0.16516744 -0.08859448 0.06403663
000050 49 73 0a 3e 6c 16 af 3d c3 7d eb 3d 7b 49 e8 3d
       0.1352054 0.085491985 0.114985965 0.1134214
000060 27 81 ee 3d 5d 87 4e 3d ae de fc 3d 39 48 b9 bd
       0.116457276 0.05042206 0.1234716 -0.090469785
000070 ec c8 de bd e8 35 90 3d 81 a9 06 3d 55 ed 3d bc
       -0.108781666 0.07041532 0.032876495 -0.011592229
000080 2b 93 0c be d2 ad 81 3d fb af da 3d de 94 b3 bc
       -0.13728015 0.06331982 0.10678097 -0.021921571
000090 90 c6 40 3d 3f 14 ac 3d 89 cc 38 be 66 c9 a8 bc
       0.047064364 0.08402299 -0.18046774 -0.020603847
0000a0 ce 78 6b bd d4 7f cd bd d3 a9 cd 3d db 94 34 3e
       -0.057488255 -0.10034147 0.10042157 0.17634909
0000b0 b1 31 22 3d 9a e0 c9 3d e4 a3 06 be 3a a5 98 3c
       0.03959817 0.098572925 -0.13148457 0.018633474
0000c0 7b bb 0a bd 94 17 c8 bd 0f d6 c8 3c c4 c5 75 3d
       -0.0338702 -0.09770122 0.024516134 0.060003057
0000d0 6c d1 97 ba bc f3 ad 3d c7 13 bd 3d 02 c1 2b 3e
       -0.0011582798 0.08493754 0.09232288 0.16772845
0000e0 77 f2 06 3c c8 9d 48 3c 6c c6 91 3b ff e8 c3 3c
       0.008236519 0.012244649 0.0044487026 0.023914812
0000f0 7d d6 fa bd 11 83 f3 bc 57 27 22 be 54 b1 ee bd
       -0.12247942 -0.029725583 -0.1583532 -0.116549164
000100 73 f9 0c be 38 9f 07 3e 52 14 d4 bd 92 5e 1a bc
       -0.13767032 0.13244331 -0.10355438 -0.009421961
000110 d4 00 fd 3c f4 ad 25 3e f2 d5 9e 3d ad 97 f9 bd
       0.030884184 0.16179639 0.077556506 -0.12187133
000120 b7 f7 3c 3e 90 c5 32 be db 4e 60 3c d7 4c 2d 3e
       0.1845387 -0.17458177 0.013690676 0.16923843
000130 49 70 26 3e 2f f3 5b bd 34 44 f3 bd 01 b9 87 3d
       0.16253771 -0.053698715 -0.11878243 0.066270836
000140 cf d5 ff 3d 34 88 ab bd c5 ba 1f bd 67 9c d5 bd
       0.12491953 -0.08375588 -0.038996477 -0.10430222
000150 63 73 97 3d ae e3 46 3d 49 11 b8 3d f7 50 53 bd
       0.07395055 0.048556976 0.08987672 -0.051590886
000160 06 3f 38 be 53 a8 84 bd 0e d2 07 be 87 e0 44 bd
       -0.17992792 -0.06477418 -0.13263723 -0.04806569
000170 20 71 61 3d 18 3d 21 be d5 91 9c bc 51 23 2b be
       0.055039525 -0.15745962 -0.019112507 -0.16712691
000180 34 0c 02 be 0e 96 09 be f7 90 82 bd 5d b6 c6 bd
       -0.12699968 -0.13436148 -0.06375306 -0.09702752
000190 a7 5d 5f 3c 0a 50 e7 3d 01 22 0b 3e 54 dc 85 3d
       0.013633168 0.11294563 0.1358719 0.06536165
0001a0 fe 1c d5 bb a5 c3 33 bd 54 fa fa 3d a6 9e dd bd
       -0.0065037003 -0.043887753 0.122547776 -0.108212754
0001b0 be 3d 02 3e 5e 56 27 be 38 01 07 be 1e 4b 3c 3d
       0.12718865 -0.1634154 -0.13184059 0.045970075
0001c0 93 b6 7d bd 87 ab f8 3c 9d ee 27 3e d9 d7 b3 3d
       -0.061941694 0.030355228 0.16399617 0.08781404
0001d0 d3 21 38 3e 47 3e 9b bd 9b 12 b3 bd 2b 9e e1 bc
       0.17981653 -0.07580238 -0.08743783 -0.02754124
0001e0 65 c3 e0 bc c1 d9 b1 bd 4b 42 d9 ba 0b b4 22 3e
       -0.027436921 -0.086841114 -0.0016575543 0.15888993
0001f0 55 5a bf bd b8 97 d2 3d d2 5a bd 3d 55 15 d2 3d
       -0.09343401 0.10282844 0.09245838 0.10257975
000200 da b9 0a 3d ad 51 92 bd 9a f3 84 3d 9c 0f c4 bd
       0.033868648 -0.07144485 0.06491776 -0.0957329
000210 a0 da f7 bd 8b 0e 20 3e 35 0e 20 3e 6a a5 09 be
       -0.12102246 0.15630548 0.1563042 -0.13442007
000220 34 fb 06 3e 1b 3f 40 3d d0 7c 6f 3d af 75 2a 3e
       0.13181764 0.046935182 0.05846864 0.16646455
000230 07 4c bc bc 52 83 2d bd 44 9f d4 3d 38 d8 01 bd
       -0.022985471 -0.042361565 0.1038194 -0.031700343
000240 6d e4 ec bc aa 5f ac bd 28 10 3f 3e 07 52 9b 3d
       -0.028917516 -0.08416684 0.18658507 0.07584005
000250 d2 7b 2b bd fe 92 8e bc 1c 9e 56 3c 64 9c f3 bd
       -0.04186613 -0.017404076 0.01309922 -0.118950635
000260 31 4c 80 3d ba c9 17 be 39 28 62 bc 4d cf a9 bc
       0.06264532 -0.14823046 -0.013803535 -0.020728732
000270 e9 8a 72 bd f8 8f 34 3e e3 8e 81 3d 26 0a a4 3d
       -0.059214506 0.17633045 0.063260816 0.08009748
000280 dc d6 00 be e6 7f 1c 3d 83 0a 3a 3d 4a fb cd 3d
       -0.12581962 0.03820791 0.04542018 0.10057695
000290 f2 8c 6b bd 18 5e 2f bd cd be 1c be 75 40 e2 3d
       -0.057507463 -0.042814344 -0.1530716 0.110474505
0002a0 e5 a1 fa 3d 50 7d b1 3d 50 b6 a9 3d 1a 2f e1 3d
       0.1223791 0.086664796 0.082867265 0.10995312
0002b0 7c 22 25 3e e3 fa 83 3d 61 d0 80 3d 9a a2 75 3d
       0.16126436 0.06444337 0.06289745 0.059969522
0002c0 cb 0f c6 bd 17 48 21 3d 1e cd 7c 3d a6 c0 14 be
       -0.09670981 0.03937539 0.061719052 -0.14526615
0002d0 25 85 2a bd d1 37 d6 bd b3 25 f5 bd 60 02 ec 3d
       -0.041630883 -0.10459865 -0.11970081 0.115238905
0002e0 74 4a 04 3e 4a 44 9a bc 5d b2 65 3d 0b 44 34 bd
       0.12919027 -0.01883139 0.056078304 -0.044010203
0002f0 d0 9a 2c 3d 54 eb ba bc 6a 4f b7 bd e7 21 ae bd
       0.04213983 -0.022817291 -0.08950694 -0.0850256
000300 71 d8 40 3e 46 16 0e 3d b2 4b c2 bd 0f 1e b5 3c
       0.18832566 0.03468921 -0.09487094 0.02210906
000310 56 f4 3b be 90 49 19 3c 90 d7 0e 3e fb 61 05 3d
       -0.18354926 0.009355918 0.13949418 0.032564145
000320 67 41 5a 3d ff 9e 35 be 75 8d 32 bd 9a 77 c7 3d
       0.05328503 -0.17736433 -0.043591935 0.09739609
000330 6c e5 ec bd 4c e1 c4 bd 28 bc ee 3d ef 32 15 3d
       -0.11567196 -0.096132845 0.11656982 0.036425527
000340 95 f9 92 3d c1 2f 1d be 76 e3 d2 3d 24 37 14 bd
       0.0717651 -0.15350248 0.10297291 -0.0361854
000350 18 81 4b 3d c5 d0 1e 3e 22 7c 2a be f7 0c 78 3d
       0.04968366 0.15509327 -0.16648915 0.06055924
000360 ff 59 25 be c8 9f 12 3e 21 53 84 3d 97 56 16 3c
       -0.16147612 0.14318764 0.06461168 0.009175918
000370 48 88 aa bd 20 31 66 3d 3d 28 d2 bd 70 4d de 3c
       -0.08326775 0.056199193 -0.10261581 0.027136534
000380 89 be 26 3e 65 a1 fc bd 44 c9 2e bd 44 ff 5a 3d
       0.16283621 -0.12335471 -0.04267241 0.053466097
000390 84 75 34 3d 8c c4 70 3b 9d c8 1d 3e 76 d4 1f bd
       0.044057384 0.0036738245 0.15408559 -0.039020978
0003a0 5a a4 69 3d 41 47 c0 3d cb df 43 bd 8d aa fc 3d
       0.057041503 0.093885906 -0.047820847 0.123372175
0003b0 f8 df 02 3e 87 44 84 3d a8 b4 0b bd 38 57 0f 3e
       0.1278075 0.06458383 -0.034107834 0.13998115
0003c0 a2 10 eb bd 18 8d 8b 3d 11 1a ad 3c 3f f8 05 3e
       -0.11477782 0.06814021 0.021130593 0.1308298
0003d0 dd 17 08 be da dc 37 3d ab 7e eb bd 24 d6 da 3d
       -0.13290353 0.044888355 -0.114987694 0.10685375
0003e0 7c 90 41 3d d5 d0 00 be ef 1e 08 bb 3e 68 14 3d
       0.04725693 -0.12579663 -0.002077039 0.036232226
0003f0 44 1b 80 3d 60 4b 13 3e 40 40 89 3d 0e 96 13 3d
       0.062552005 0.14384222 0.06701708 0.036031775

blocks.0.attn.v_proj.bias f4 [32]
000000 e7 50 86 bd a7 1a 24 bd 8e 45 21 3e 54 60 58 bb
       -0.065584 -0.04006448 0.1574919 -0.00330164
000010 24 d4 28 3e 14 cf 2d 3e 38 c1 99 bd 3e 42 3c be
       0.16487175 0.16973525 -0.07507557 -0.18384644
000020 8d c6 31 3e 3a ab a4 bd fa 5f 3c 3e 6f 98 02 be
       0.17360897 -0.080404714 0.18395987 -0.12753461
000030 78 56 98 3c 04 df 85 3d 00 26 60 bd 23 3d 1c 3e
       0.018595919 0.065366775 -0.05472374 0.15257697
000040 e3 fd 28 be 36 48 76 bd cc 41 60 bc c2 86 18 3e
       -0.165031 -0.06012746 -0.013687562 0.14895156
000050 6b df c4 3d 09 08 01 3e 53 c6 84 3d fd 9d 13 3e
       0.09612926 0.12600721 0.0648314 0.14415736
000060 7b 77 57 bd 77 76 35 bd e7 82 87 bc 20 11 ad 3d
       -0.05260418 -0.04430243 -0.016541911 0.08450532
000070 cf 64 4e bd a8 8f 58 3d 0e fa 36 3d 8c 27 da 3c
       -0.050389107 0.052871376 0.044672064 0.026630186

blocks.0.attn.out_proj.weight f4 [32, 32]
000000 d4 8d 22 3e d2 3a de 3c 7c a8 d7 3d 6f 22 80 bd
       0.15874416 0.027127657 0.10530183 -0.06256568
000010 35 d9 31 be e9 7d c1 3d d4 19 b2 3d a3 05 22 3e
       -0.17368014 0.094478436 0.086963326 0.15822463
000020 20 e3 5a 3d 2a 7c 6f 3c 3a 44 10 be 57 90 1c be
       0.05343926 0.014617005 -0.14088526 -0.15289436
000030 f2 89 31 3d 30 4b 05 3e b3 33 ec bb 35 c6 8c bd
       0.043344446 0.13016963 -0.0072083115 -0.068737425
000040 57 7e cf 3d b2 3f a2 bd cb 7c 87 3d e0 16 20 be
       0.10131519 -0.07922305 0.06615599 -0.15633726
000050 5d e5 30 be ec e0 f0 bd 0f b9 25 bd 1f a8 61 3d
       -0.17274995 -0.117616504 -0.04045969 0.055091973
000060 af 2e cb 3d 11 a2 ec bd 78 04 3b bd 5f c2 4d 3d
       0.099210136 -0.11554349 -0.04565856 0.050234195
000070 b6 a2 19 bd 9b 81 11 bc e2 6e f8 3d 56 fa 1c bd
       -0.03750869 -0.008880998 0.12130524 -0.038324676
000080 3c c4 c7 3d 22 f4 17 3e 59 08 54 3d 34 23 0d bd
       0.097542256 0.14839223 0.051765773 -0.0344574
000090 e6 d1 f6 bd 9b 03 02 be 6d 6f 16 bd e3 ed 86 3d
       -0.12051754 -0.12696688 -0.036727358 0.06588342
0000a0 a0 43 c3 3d 43 b2 d5 bb 04 b8 11 3e fe df 78 bd
       0.09534383 -0.0065214946 0.14230353 -0.06076049
0000b0 a8 a6 32 3d 5e 34 be bd 77 10 52 3d 40 0d 0f 3e
       0.043615967 -0.09287332 0.051285233 0.13969898
0000c0 c8 cb 8a 3d bb 62 a0 3c 09 d8 89 bd e5 bc 1b be
       0.067771494 0.019578328 -0.067306586 -0.15208776
0000d0 4f 87 01 be 1c 0b 1e be 7c fd f4 3d 5b 1f 8b bd
       -0.12649272 -0.15433925 0.11962411 -0.0679309
0000e0 a8 b3 ec bc c7 fd 1a be be 78 3b bd 0b 58 18 3e
       -0.02889426 -0.15135871 -0.045769446 0.14877336
0000f0 de d8 1e 3d ee 70 16 bd 0b c1 b1 3d f3 0c 12 3e
       0.03878104 -0.036728792 0.08679398 0.14262752
000100 29 3f 1a 3e 05 63 fd bd f2 1d 34 3c 43 7b 22 be
       0.15063156 -0.12372402 0.010993468 -0.15867333
000110 7b d0 0a be 19 c1 fb 3d a7 34 03 be 77 67 a4 bd
       -0.13556091 0.1229269 -0.12813054 -0.08027547
000120 66 be 91 3d 69 3b 36 3e 20 a0 3d be 3f 46 cd bd
       0.07116394 0.177961 -0.18518114 -0.10023164
000130 31 32 83 bd b9 1b 03 3e 3c 94 d7 3d 35 c9 d6 3d
       -0.064060576 0.12803544 0.1052632 0.10487596
000140 8f 5a f8 3d 81 f6 10 bd 04 da 0b 3e 1c 56 8e bc
       0.12126648 -0.035391334 0.13657385 -0.017375045
000150 79 94 2b 3c 6b 4f 75 bd 43 46 8c 3d df ee 93 3d
       0.01047241 -0.059890192 0.06849339 0.072232954
000160 f0 14 e3 bb f8 f4 22 3e ed e0 59 bd ba 9b 3d 3d
       -0.006929986 0.1591376 -0.05319302 0.04629109
000170 72 6f 2b 3e dd 61 c0 3d c3 a0 7f bd 7e 02 91 bd
       0.16741732 0.09393666 -0.062409174 -0.070805535
000180 c2 4b 3c 3d 36 92 2e bc 93 08 37 ba 4f d2 e6 3d
       0.045970686 -0.010654977 -0.00069821737 0.11270582
000190 8b e7 4f 3d 42 9b e6 bd f9 7e 09 be 87 70 38 3e
       0.050757926 -0.11260082 -0.13427342 0.18011676
0001a0 5f 72 da bc 46 31 93 bd c8 af 0e be 59 ba 39 3e
       -0.026665865 -0.071871325 -0.13934243 0.18137492
0001b0 6b 8f be 3d 7d 72 f6 bd fd ba 13 be dc 2c 14 3e
       0.093046986 -0.12033556 -0.14426799 0.14470237
0001c0 15 4d b1 3d 69 81 71 bc d5 b9 15 be 24 a0 c6 3d
       0.0865728 -0.014740326 -0.1462167 0.09698513
0001d0 1b a1 06 be 86 27 9e 3d 96 a9 31 be db c3 1c be
       -0.13147394 0.07722382 -0.17349848 -0.15309088
0001e0 78 bd 2a be 9d 0a 2d 3e aa 82 25 3e 68 be 1c be
       -0.16673839 0.1689858 0.16163126 -0.15307009
0001f0 6c c1 14 3e f8 35 eb bd c4 64 27 be b9 eb b6 3d
       0.1452691 -0.11484903 -0.16347033 0.08931679
000200 a9 4d e9 3d 6e 01 d2 3d 96 83 99 3c 57 e2 27 3e
       0.113917656 0.10254179 0.018739503 0.16394936
000210 e4 08 2a be 21 7b 8b 3d 09 e8 2e bd b7 c0 89 3c
       -0.16604954 0.06810594 -0.042701755 0.016815526
000220 fc 02 e0 3d 95 06 f0 bd bd ce 89 3d f7 a3 b0 bc
       0.10938069 -0.117200054 0.06728885 -0.02156256
000230 47 cd f5 3d 34 31 8f bc 7a 4d a7 3d eb ab 20 3e
       0.12002044 -0.017479517 0.08169074 0.15690582
000240 af c7 4b bd 5c 23 2d be 23 8c 34 3e 8a 67 de bd
       -0.04975098 -0.1690802 0.17631583 -0.10859592
000250 c4 35 e8 3c 66 07 c7 3d 23 f3 03 bd b7 c8 0a 3e
       0.02834595 0.09718208 -0.032214295 0.13553129
000260 69 15 fc 3d ba a5 f8 bc 17 d4 1e 3d 71 c6 19 3b
       0.12308771 -0.030352462 0.038776483 0.0023464228
000270 1b 90 33 3e 1d 26 e9 3d 4f ce df bd 36 64 a5 3c
       0.1753544 0.11384223 -0.10928022 0.020189386
000280 e0 c3 d5 3d 7a 19 07 3e d5 5d 6d 3d 81 29 8f 3d
       0.10437751 0.13193312 0.057950813 0.06990338
000290 67 33 2f bd a1 21 10 ba 1a df ec bd 0e 6a 18 3e
       -0.04277363 -0.0005498175 -0.11565991 0.14884207
0002a0 38 00 05 3e 40 f1 c4 bd ec d7 22 be 92 56 16 3e
       0.12988365 -0.09616327 -0.1590268 0.14681461
0002b0 aa 35 1e be fe 17 d3 3d 5e 40 2d be 2e 9b b9 bd
       -0.15450159 0.103073105 -0.16919085 -0.09062801
0002c0 8c cf 99 bd f0 59 2c 3e 57 83 de bc d1 0c 1d 3e
       -0.075102895 0.16831183 -0.027162237 0.1533692
0002d0 71 7e 6b 3d 93 f5 24 3e bb 37 ea 3d 5e b9 fb 3d
       0.05749363 0.16109304 0.11436411 0.12291215
0002e0 7d fd 1e 3e cd e6 6a bd 00 04 55 bd 46 a7 82 3d
       0.15526386 -0.057349015 -0.052005768 0.06379561
0002f0 f9 77 19 3e 44 79 94 bd 55 aa 0b be d1 43 0a be
       0.14987172 -0.07249692 -0.13639195 -0.13502432
000300 44 f4 c0 bd a7 85 ed 3c 76 d9 30 bc 81 e2 20 bd
       -0.0942159 0.028994394 -0.010794034 -0.03927851
000310 fe 81 8e bd 6f 7e 6e 3d a9 72 22 be 5a 0c 26 3e
       -0.06958388 0.058226045 -0.15864052 0.16215649
000320 40 00 87 bc e1 02 04 3d ec 87 91 3d 26 21 a8 bd
       -0.016479611 0.032229308 0.07106003 -0.082094476
000330 1e 67 06 3e de 9c c3 3b 22 27 a9 3c a8 5d 22 be
       0.13125274 0.0059696278 0.020648543 -0.1585604
000340 0a f1 89 3c 54 17 83 3d 0c 0c b2 3c d2 72 cf bb
       0.01683857 0.06400934 0.02173426 -0.0063308263
000350 fd 4b 17 3e 7b 0e 1c 3e b3 52 08 3e 76 e8 26 bd
       0.14775081 0.15239899 0.13312797 -0.040749036
000360 4c f5 c0 3c 11 d4 f2 bd 7f 25 02 be 2a 46 af bc
       0.023554467 -0.11856855 -0.12709616 -0.021395762
000370 a8 a4 87 3c 08 96 c8 bd 4e bf 1a be 01 2c a8 3d
       0.016558006 -0.09794241 -0.1511204 0.08211518
000380 55 ba 9e 3d 9b ed e5 bd 37 73 e4 3d 46 46 14 be
       0.07750384 -0.1122696 0.11154788 -0.14479932
000390 a9 80 f5 3d c8 8e b6 3d 6d 80 49 bd 2b e1 33 3e
       0.119874306 0.08913952 -0.049194742 0.17566364
0003a0 61 52 e2 bd 18 57 a1 bd 51 74 02 3e 44 ce 13 bd
       -0.11050869 -0.0787794 0.12739684 -0.036085382
0003b0 fd 26 84 bd dc b8 7d 3c 19 d8 a5 bc 03 8d ed 3d
       -0.06452749 0.015485968 -0.020244645 0.115991615
0003c0 d3 1d 1d 3e 36 3b ae 3d de e0 0e 3d ce 01 01 3d
       0.15343408 0.08507387 0.03488242 0.03149586
0003d0 2d 62 e7 bb 20 87 33 3c 6f 13 09 bc af f1 fa 3d
       -0.007061264 0.010957509 -0.00836645 0.12253129
0003e0 b6 fc df 3d c2 8a bd bc 18 17 83 3d 21 3c a5 3b
       0.10936873 -0.023137454 0.06400889 0.0050425683
0003f0 a8 9a 90 3d c3 7f 12 3e 60 38 f0 bd 3e a3 0f 3d
       0.07060748 0.1430655 -0.11729503 0.03506779

blocks.0.attn.out_proj.bias f4 [32]
000000 bc 7c ab bd c1 4f 56 bd b9 a2 d5 bd de dc ed 3d
       -0.083734006 -0.052322153 -0.104314275 0.11614393
000010 4b d9 27 3b 27 da 58 bd 96 6c 86 bd 9d 81 2f be
       0.0025611694 -0.05294242 -0.0656368 -0.17139287
000020 92 43 a3 ba ec 5e 19 3e 27 09 06 3e 4b 58 0e 3e
       -0.0012456051 0.14977616 0.13089429 0.13900869
000030 56 8b d9 3d a2 91 b6 3d d5 6f 9a bc 7f 29 ee bd
       0.10622279 0.08914496 -0.018852154 -0.116290085
000040 6c 1f 14 3e 00 84 0e be a8 fa ba bd 3f 38 6d 3d
       0.14465111 -0.13917542 -0.0912984 0.05791497
000050 1a 50 aa 3d 03 29 db bd fe 64 00 3e 50 39 38 be
       0.083160594 -0.10701182 0.12538525 -0.17990613
000060 0e 12 6a 3d 7c a2 84 3d 1b 23 c0 3c c8 25 af bd
       0.057146125 0.06476304 0.02345424 -0.08552128
000070 5e 61 d8 bd 6d f2 1f 3e d9 75 5a 3d de 1f a6 bd
       -0.10565446 0.15619822 0.053335045 -0.08111547

blocks.0.ln2.ln.weight f4 [32]
000000 83 df 80 3f 88 57 80 3f b7 d9 81 3f 95 d6 80 3f
       1.006821 1.0026712 1.0144566 1.0065485
000010 aa 9c 80 3f b2 e6 80 3f 76 bf 81 3f 75 d5 81 3f
       1.004781 1.0070403 1.0136554 1.0143267
000020 c2 d5 81 3f ec d5 81 3f 8e ba 81 3f aa 87 81 3f
       1.0143359 1.0143409 1.0135057 1.0119526
000030 60 dc 81 3f ad 74 81 3f 76 c4 80 3f aa 39 81 3f
       1.0145378 1.0113732 1.0059955 1.0095723
000040 8d cd 80 3f 8b ab 81 3f e3 bd 81 3f d5 d6 81 3f
       1.0062729 1.0130476 1.0136074 1.0143687
000050 4f 00 80 3f d6 f3 81 3f 4b af 81 3f 94 df 81 3f
       1.0000094 1.0152538 1.013162 1.0146356
000060 8a ba 81 3f c1 7a 80 3f 6a e7 81 3f 7f 8f 81 3f
       1.0135052 1.0037462 1.0148747 1.0121917
000070 c6 a0 80 3f bd d1 81 3f aa f2 80 3f 03 a4 81 3f
       1.0049064 1.0142132 1.0074055 1.0128177

blocks.0.ln2.ln.bias f4 [32]
000000 1c d2 04 3c 78 ed 7b 3c b3 2d bc bb 24 42 71 3c
       0.008106735 0.015376441 -0.0057427525 0.014725242
000010 c3 86 05 bc 16 ef 25 bb e1 6c fb bb 44 bc 7a bc
       -0.0081498055 -0.0025319508 -0.0076728915 -0.015303675
000020 bf 03 7c bc 44 55 64 bc 45 a2 75 3c 06 03 e6 3b
       -0.0153817525 -0.0139363445 0.014992301 0.0070194034
000030 c5 e4 4a 3c 88 04 5b 3c e5 5b 2d 3c 13 0b 7b 3c
       0.0123836445 0.01336778 0.010580991 0.0153224645
000040 9c c7 f9 38 1a a4 6d bc 42 81 53 3c fd 50 6f bc
       0.000119104254 -0.014504457 0.012909235 -0.014606711
000050 d5 ef 79 bc b9 c0 7d bc fe 35 54 3c 55 cd e0 bb
       -0.015254934 -0.015487843 0.012952326 -0.006860415
000060 ae 3e 7e 3c 61 81 61 3c 49 d1 75 bc 6a d2 b7 bb
       0.015517874 0.0137637565 -0.015003511 -0.0056098
000070 0c 4a 70 bc 6e c1 76 3c cc a6 6c 3b 87 ff ef ba
       -0.014666092 0.015060766 0.003611016 -0.0018310406
