models/checkpoints_test/toy_checkpoint.pt (torch, 368121 bytes, 109 tensors)

tok_embedding.embedding.weight f4 [40, 32]
00000000: 1afc d83f 2082 8e3d 230b 25bf 3350 9abf
00000010: 99d0 403f 51ae 903f 81b8 c43f a670 263e
00000020: 6838 22bf 5de2 5c3f 6d4c a1be 6c32 25c0
00000030: 83e7 0fbe 5f2e 25bf 6438 98be 7061 3b3f
00000040: 6115 b8bf 92c1 a53f c647 19bf adf3 fd3e
00000050: fed5 2dbf fa67 9abf 0033 0dc0 2d16 afbc
00000060: 5991 59bf a409 043f 8233 9abf 3d42 a83f
00000070: 0172 76be 8839 a83f c7d2 acbf 1dec 7b3e
00000080: 68d7 6b3f cfaf 5f3e 0479 9f3f 179e 04bf
00000090: 7864 9cbf 4dcc 86be 5d90 3c3f 04c2 8b3f
000000a0: 5032 67be 1a13 093f b6e7 8c39 325d 8fbf
000000b0: 0493 efbf fc06 833f 8752 d03f 8212 8b3f
000000c0: 328b 28bf d211 2a3f 2de5 e5bf b685 cd3e
000000d0: 4b23 95bd bd83 f13f 58c4 a83e 8e43 2cbf
000000e0: 4010 e33e b2c7 823f 9737 973d 8076 b2bf
000000f0: 86a2 d53d 91db 98bf c676 953e 8bdf 50bf
00000100: e05a 603f d31d 9f3f 3a6a 18bf 77be 60bf
00000110: 4d1c 06bf 5ce5 f53e 1eae 8e3e 0452 32bf
00000120: de8f 683f 5b20 bbbe 4583 16bf 8612 6fbf
00000130: 5567 8cbf 6984 ebbe 1690 603f 2f0c 82bc
00000140: a7f3 7bbf 26ef 643f 3905 c7be 1d25 2f3e
00000150: eed8 e83e 5419 0bbe 6b5b c6bc 3810 8bbc
00000160: 3755 ff3e 4059 993f 6751 173e e678 0f40
00000170: bb93 1abf 902f ec3e 4eac b5be 52a0 53bf
00000180: 6d0e 90be 825e 01bf 0ff3 253f ce6f 553f
00000190: 6456 49bf 7f01 a63d ff32 d83e f968 a6bd
000001a0: 0d51 a7be 7ed9 a23f f4d9 053f 4594 973f
000001b0: fb9b 383f be2b d13f 199a 823f 69ae 263e
000001c0: a6e3 bd3e 0f3c 4bbf 1b8c ed3e 9214 31bf
000001d0: bfdf c3bf 7037 e4bd d9d7 91bf 8e9f 9abf
000001e0: b0c5 4140 85fd 91bf de13 063f ea39 423f
000001f0: 8999 8abf 0d86 01bf 33cf 9bbf ab5d 0d3f
00000200: c189 4b3f 3c4a 0c3f 8b6a 14bf 0e01 a73f
00000210: 47da 30bf 9427 ec3e 085b edbe 71ea a13d
00000220: 5994 f43f eeab 52bf 2a80 a5bf 1e70 13bc
00000230: 280a 293f 340f 543f e7f1 463e ee79 ac3f
00000240: 5148 243f de6e fabf 29c3 75bf e8ad 3f3f
00000250: 02b4 47bc 7686 1cbf 526f 7cbd dfb6 57be
00000260: b6ba bcbe e1c1 ef3f 8527 01c0 ab45 1f3f
00000270: 5e3e d2bf e794 52bf 3273 3f3f cc8b 0dbe
00000280: 7ebd a63f b317 c3bf a45f 89bf db27 5ebf
00000290: a8d7 4ebf d1d3 65bf 5815 ab3e 5ccb e7be
000002a0: 1e90 663f ab48 163c 3ad3 85be 163d 0640
000002b0: 25c5 89bf 7c40 39bf e133 b1bf f650 3e3f
000002c0: f202 bbbf dc3e 88bf d81a 1d3d b7cb e43d
000002d0: 47ac bdbe fd14 883e 100c f5bd a863 e63e
000002e0: 1599 60bf 6c17 78bd 5bb7 31be 0a6c 2fc0
000002f0: e473 d8be 9aaf f53e 92ec 47be 4a6b 08bf
00000300: 3931 883f 1aa1 343f 8911 4fbf ecab 113f
00000310: ebf1 05bf c335 c2bd eb15 21bf 4aa5 9e3f
00000320: 98de a93d fb9c 623f 3747 303f 7eec babf
00000330: 2371 0240 5b77 d7bd 5b9b 443e 45c7 523e
00000340: fdab 0b3f 9cb5 c3bf 6aab 22bf 875a bdbf
00000350: b70d b7be 08f1 2a3d b3a7 a1be d704 8b3f
00000360: 0f1b 98bf 2788 c93f 6032 9e3f 90c4 8c3f
00000370: b258 f8be bee0 d43f 432c dc3e 53fb f83e
00000380: a4bd 54be bf51 43bf 4622 413f 9918 35be
00000390: 533d 4fbf 3a26 aabe dc6d 913d 7179 183f
000003a0: 73b5 10be 80f7 7fbf 9a44 453f ea01 0640
000003b0: 2ca9 5cbf a12d e43e 0db6 c4bf 0f8c 05c0
000003c0: 260d e53f 71cb 763d a34f 293f d938 1d3f
000003d0: fea3 75bf a329 a3bf a9f9 1dbf c25f a9bf
000003e0: 54eb 0bc0 952d d83e 1a89 2e3f 5df0 95bf
000003f0: 4cea 08c0 a8c7 a03f d96c a93f 60c9 3f3f
1.6951935 0.06958413 -0.6447012 -1.2055725 0.75318295 1.1303197 1.5368806 0.1625391
-0.6336732 0.862829 -0.3150362 -2.5812025 -0.14053158 -0.6452388 -0.29730523 0.7319555
-1.4381524 1.2949698 -0.5987514 0.49599972 -0.6790465 -1.2062981 -2.2062378 -0.021372879
-0.8498741 0.5157721 -1.2046969 1.3145214 -0.24066927 1.3142557 -1.3501824 0.24601789
0.9212556 0.2184441 1.2458806 -0.51803726 -1.2218161 -0.26327744 0.7365778 1.0918584
-0.22577786 0.5354477 0.0002687552 -1.1200316 -1.8716741 1.0236506 1.6275185 1.0865023
-0.65837395 0.6643344 -1.7960564 0.40141076 -0.07282122 1.8868328 0.32962298 -0.6729058
0.44348335 1.0217192 0.0738365 -1.3942413 0.104313895 -1.1942006 0.2919218 -0.815911
0.87638664 1.2430977 -0.5953709 -0.87790626 -0.52386934 0.4802655 0.27867216 -0.69656396
0.90844524 -0.36548123 -0.5879405 -0.9338764 -1.0969034 -0.45999458 0.8771986 -0.01587495
-0.9841866 0.8942741 -0.38871172 0.17104001 0.45478004 -0.1358388 -0.024213513 -0.016975507
0.498697 1.1980362 0.14777146 2.241754 -0.6038167 0.46130037 -0.3548302 -0.82666504
-0.28136006 -0.5053483 0.64824003 0.83373725 -0.78647447 0.08105754 0.42226407 -0.08125491
-0.32679024 1.2722623 0.52285695 1.1842123 0.7211301 1.6341474 1.0203277 0.1627747
0.37087744 -0.7938852 0.46395954 -0.6917201 -1.5302657 -0.11143386 -1.1393996 -1.2079942
3.027691 -1.1405493 0.52374065 0.7586962 -1.0828105 -0.5059517 -1.2172607 0.5522105
0.7950707 0.5480077 -0.5797507 1.3047197 -0.69083065 0.46123946 -0.46358514 0.07906044
1.9107772 -0.82293594 -1.2929738 -0.008998899 0.6603112 0.828357 0.19428216 1.347471
0.64172846 -1.9565084 -0.96000916 0.74874735 -0.012188913 -0.6114267 -0.0616296 -0.21065854
-0.368612 1.8731042 -2.018037 0.6221568 -1.6425283 -0.82258457 0.7478515 -0.1382286
1.3026578 -1.5241607 -1.0732312 -0.86779565 -0.80797815 -0.8977633 0.3341472 -0.45272338
0.90063655 0.009172599 -0.26137716 2.0974784 -1.0763289 -0.7236402 -1.3843957 0.74342287
-1.4610274 -1.0644183 0.03835568 0.11171668 -0.370455 0.26578513 -0.11965191 0.44997907
-0.87733585 -0.06056921 -0.17355101 -2.7409692 -0.42275918 0.47985536 -0.19523838 -0.5328871
1.0640022 0.7055832 -0.8088613 0.56902957 -0.5232226 -0.094829105 -0.6292407 1.2394192
0.082944095 0.88520783 0.68858665 -1.4603422 2.0381553 -0.10520812 0.19199888 0.20583828
0.5455931 -1.5289798 -0.6354281 -1.4793252 -0.3575265 0.04173377 -0.31573257 1.0860852
-1.1883258 1.5744675 1.2359123 1.0997486 -0.4850517 1.6631086 0.4300252 0.48629245
-0.20775467 -0.7629661 0.7544292 -0.17685165 -0.8095295 -0.3323229 0.07101032 0.59560305
-0.14131717 -0.9998703 0.770578 2.0938668 -0.86195636 0.44566062 -1.5368057 -2.0866735
1.7894638 0.06025261 0.6613714 0.6141487 -0.9595336 -1.2747082 -0.61709076 -1.3232348
-2.1862383 0.42222276 0.6817795 -1.1713978 -2.1393003 1.256093 1.3236343 0.7491665

pos_embedding.pos_embedding.weight f4 [8, 32]
00000000: b926 06bf 45f3 7bbf 26dc ff3f 88c7 453f
00000010: 8450 923f 290a 703f 35ca 303f 96fe fabf
00000020: 4b8d f43f 313d 61bf 118f c0bf 7411 e03f
00000030: 7817 8d3f 43d1 f9bd 6d84 3fbd 0335 2240
00000040: 49bb 9a3e 4d36 75be 9698 cf3e 3915 b2be
00000050: ab13 623f 34d8 043f 99c4 fc3e 5bfd 543f
00000060: f1dc d1bd 15f6 7ebf 2701 61bf 580f 29bf
00000070: 3636 99bf 2ffb 16bf 0944 27bf e069 9cbf
00000080: 8858 22bf 8751 433f 1458 d1bf 88b8 323f
00000090: d34f 45bf 6740 b03f 71c7 213e abad 14bf
000000a0: 7f34 00c0 9e2d 483f 4ceb 20bf b446 62bc
000000b0: a811 f13f 0090 533f f701 c6bf f1c5 933f
000000c0: fa24 6f3f 8cfb cfbf a6c5 ea3f e6fe 0e3f
000000d0: 4ecd fbbe 61ea 1040 0ada ce3f c873 31be
000000e0: 115e 95bf 6360 cd3e 0258 1a3e 16cd c93d
000000f0: a99f 6e3f 072f b3bf aa79 8d3f 4849 353f
00000100: 31d5 433f 919a aebf b8e2 5e3e c1bd 5f3f
00000110: ea42 b6be a9ba 93bf 88fc 533e d3a3 35bf
00000120: f6ee 80be c75d 193e 350e 2e3b 018c b4bf
00000130: 89a0 623f 2709 793e d8f7 83bf d446 f3be
00000140: fb03 41be baf9 04be a08b 6dbf 05b8 35be
00000150: 4d79 b4bf 55a8 48bf d85e eabf 511c 283f
00000160: 4906 613f 34bd ce3e 06c6 9bbf 6d87 183d
00000170: d2f9 2cbd db5d 903f 60ef 25bf e824 8a3f
00000180: 31d4 83be e02b 4e3f 60a5 253f 1245 91bf
00000190: e4aa 853f 018a 3b3f 87ef a0bf 197c c2bf
000001a0: 9a97 21bf a348 473f 7031 c43e b977 2a3e
000001b0: 8205 12bf 6ec4 dabd 78fe 11c0 ec56 733f
000001c0: 4385 cbbe 7815 e23d e0c9 ac3f 68a2 b6bf
000001d0: 25d4 f3be f494 793f bdf8 97bc 6245 d5be
000001e0: 81d3 3bbf 1951 3a3f ed82 0bbf 0e3c e63f
000001f0: 59b2 08bf 0054 13c0 5d13 ec3c e187 763f
00000200: d4bf 41bf cd89 70bf 8f5c 83be 2529 9c3f
00000210: 1185 2640 c640 19be cc2b 66bf b51c 973f
00000220: 4132 fcbf a273 fd3f 1a35 623f daeb 28bf
00000230: 050c a1bf e122 c3bd 1e66 2140 41de 0d3f
00000240: 8dc5 5e3f 6494 c73f 9f7d b3be ee6e 04bf
00000250: 10cf 9a3d e491 cd3f 7e43 6ebf a875 873e
00000260: d0ae 8f3e 8c81 d6be 8347 993e 8df3 e9bf
00000270: 64ee ea3f 382e e5bc c94e 663e 352e cebe
00000280: 8fa1 bfbe dab5 0e40 75ca 483e 31e3 de3f
00000290: f495 4ebf 051f 333e 3f1d 7c3f 1b99 dcbf
000002a0: 3c80 1ebe 10e7 223f fba8 ad3f eecf 68be
000002b0: e2c4 c13f 5ded 9dbf 1544 76bf 62ed 8e3e
000002c0: 0882 67bf 4a35 68bf 1731 86bf cca5 84bf
000002d0: 120c 75be df4b 1ebf 1905 23bf ea7f 55bf
000002e0: e0bf f03e 7821 99bf 7015 55bd d8b2 403f
000002f0: 5b1f cc3e 3efa 293e bdd5 273f 929a 0440
00000300: eb2b 7cbc a6d3 2f3f 4ef1 0840 dc5d 9f3f
00000310: f9eb 893e 0e86 493f 6ea1 95be dff5 b63f
00000320: 33d6 a43e cc5f 21bf ceca e0bf 5d32 bcbe
00000330: 2d01 bbbf 1680 7ebf dc33 82bc 661c 31bf
00000340: e244 07bf 7de9 d23e 5f0c 863f 95c1 2dbf
00000350: 95ab f93f 83f2 e53f 2702 153f 82a5 ee3e
00000360: 4e42 81bc 7ae0 2c3f b27b 933c 00a5 28bf
00000370: 0cc5 973f 9cd4 233f 3fc7 0bbe eec1 283f
00000380: 0d8f c33c 70d7 86bf 8c0a 6d3f ef3e 8a3f
00000390: ca04 563f 935d dabe 5b80 e13e 1b26 fbbe
000003a0: 078b 0bc0 d76f 6abe 7881 dfbd cd6e 19bf
000003b0: fb9a 363f 0cb7 5abe 8a91 243f 2787 b6bd
000003c0: e897 62bd 8f73 8dbe 21f7 b63d aeea 57bf
000003d0: 3da3 203f cbb0 80be 2416 bd3e d3ca 25bf
000003e0: e15d 00c0 046b 31bf f81e b53f d979 4b3f
000003f0: 4231 b7be 3b6d b13d 973d 08bf 2ec8 14bf
-0.52402836 -0.98418075 1.9989059 0.77257586 1.1430821 0.93765503 0.69058543 -1.9608943
1.9105619 -0.87983996 -1.504366 1.7505326 1.1022787 -0.12198117 -0.04675715 2.5344856
0.30221012 -0.23946495 0.405461 -0.34781817 0.8831126 0.518924 0.49368742 0.8319909
-0.10247219 -0.9959424 -0.87892383 -0.6603904 -1.1969669 -0.58977026 -0.6533819 -1.221981
-0.6341634 0.76296276 -1.6355004 0.6981282 -0.7707493 1.3769654 0.15798737 -0.58077496
-2.003204 0.78194606 -0.62859035 -0.013810802 1.8833513 0.826416 -1.546935 1.1544782
0.93415797 -1.6248641 1.8341568 0.55857694 -0.49180073 2.2643054 1.616029 -0.17329323
-1.1669332 0.401126 0.15072635 0.0985357 0.9321237 -1.3998727 1.1052754 0.70814943
0.7649718 -1.364092 0.21766174 0.87398916 -0.35597926 -1.1541339 0.20701802 -0.709531
-0.25182313 0.1497718 0.002655876 -1.4105226 0.8852621 0.24319898 -1.0310011 -0.47514975
-0.18849175 -0.12985888 -0.92791176 -0.17745979 -1.4099518 -0.78381854 -1.8310194 0.6566821
0.87900215 0.40378726 -1.2169807 0.037238527 -0.042230435 1.1278642 -0.6481838 1.0792513
-0.25747827 0.805357 0.6470547 -1.1349204 1.0442777 0.7325745 -1.2573098 -1.5194122
-0.6312195 0.7784521 0.38318968 0.16647233 -0.57039654 -0.10681997 -2.2811565 0.9505451
-0.39750108 0.11039251 1.3499107 -1.4268312 -0.4762279 0.9749291 -0.018551225 -0.41654497
-0.73369604 0.72779995 -0.5449665 1.7987077 -0.53397137 -2.302002 0.028817827 0.96301085
-0.7568333 -0.9396027 -0.25656554 1.2200056 2.6018717 -0.14966115 -0.8991058 1.1805636
-1.9702836 1.9800913 0.88362277 -0.6598488 -1.2581793 -0.09528137 2.5218577 0.5541726
0.8702019 1.559216 -0.3505678 -0.51731765 0.07559025 1.6060147 -0.93071735 0.26456952
0.2806306 -0.4189571 0.29937372 -1.8277451 1.8354001 -0.02797614 0.22490992 -0.40269628
-0.37427947 2.2298493 0.19608481 1.7413083 -0.8069756 0.17492302 0.98482126 -1.7234224
-0.15478605 0.63633823 1.3567194 -0.22735569 1.5138209 -1.2338063 -0.96197635 0.27915484
-0.90432787 -0.9070631 -1.0483731 -1.0363097 -0.23930386 -0.6183452 -0.63679653 -0.83398306
0.4702139 -1.1963339 -0.052022398 0.75272894 0.39867672 0.16599366 0.65560514 2.0719342
-0.01539133 0.68682325 2.139728 1.2450519 0.26937845 0.78720176 -0.29224724 1.4293784
0.3219467 -0.630368 -1.7561891 -0.36757174 -1.4609734 -0.99414194 -0.01589387 -0.6918396
-0.5283948 0.41193762 1.0472525 -0.6787351 1.9505488 1.7964634 0.5820641 0.46610647
-0.015778687 0.67530024 0.018003318 -0.6587677 1.1857009 0.6399629 -0.13650225 0.65920913
0.023871923 -1.0534496 0.9259422 1.0800456 0.8360106 -0.42649516 0.4404324 -0.4905251
-2.1803606 -0.22894226 -0.10913366 -0.59934694 0.7133023 -0.2135889 0.64284575 -0.08912497
-0.05532065 -0.27627227 0.08933855 -0.8434247 0.6274908 -0.25134882 0.36930954 -0.6476261
-2.00573 -0.6930392 1.4150076 0.794828 -0.35779768 0.08663412 -0.5321898 -0.5811795

blocks.0.ln1.ln.weight f4 [32]
00000000: 2e94 7f3f e829 803f 2e24 803f 100b 803f
00000010: 2bf4 7f3f 26ea 7f3f 6a21 803f f32a 803f
00000020: 5019 803f bb14 803f 44d5 7f3f 16fc 7f3f
00000030: d7da 7f3f 8d33 803f b739 803f 3129 803f
00000040: 8001 803f e8b1 7f3f 27d1 7f3f 3f22 803f
00000050: 3323 803f 972a 803f eefd 7f3f d101 803f
00000060: 411a 803f 6302 803f b7de 7f3f f7fd 7f3f
00000070: 7703 803f b024 803f 8b3d 803f ad0a 803f
0.9983548 1.0012789 1.0011041 1.0003376 0.99981946 0.9996666 1.0010197 1.0013107
1.0007725 1.0006326 0.9993479 0.9999403 0.999433 1.0015732 1.0017613 1.0012571
1.0000458 0.9988084 0.99928516 1.0010451 1.0010742 1.0012997 0.9999684 1.0000554
1.0008012 1.0000728 0.9994921 0.99996895 1.0001057 1.0011196 1.0018781 1.0003258

blocks.0.ln1.ln.bias f4 [32]
00000000: b096 f03a dfc6 733a c989 06bb 04aa abba
00000010: 837e df3a 8f49 cdb9 71a8 4eba ad06 803a
00000020: 4c2c cfba 39f3 1eba 37c6 063b a244 44b9
00000030: ea6e 94ba c005 083b 66aa f43a 3e62 e13a
00000040: 919c 533a 3a4b 66b9 3d25 dd3a a050 68b9
00000050: dc25 d0b9 e4ed 04ba bd66 8fba b6f1 49b9
00000060: 3f8d 053a 1430 b3ba 60b7 113a fc41 e5ba
00000070: ec21 9eba 4281 053a ec5d 79ba 935c 013b
0.0018355455 0.00092993485 -0.0020528904 -0.0013096933 0.0017051253 -0.00039155452 -0.0007883376 0.0009767615
-0.0015806048 -0.00060634647 0.0020564923 -0.00018717584 -0.0011324559 0.002075538 0.0018666505 0.0017195416
0.00080723414 -0.00021962533 0.001687206 -0.0002215528 -0.0003970106 -0.0005070849 -0.0010940653 -0.00019258898
0.00050945947 -0.0013670945 0.0005558636 -0.0017490978 -0.0012064553 0.0005092808 -0.00095125916 0.0019739016

blocks.0.attn.q_proj.weight f4 [32, 32]
00000000: e56d b9bc 7ce2 2d3e 340c 18bc a35f b6bd
00000010: 6eb7 c63d 04b7 f33d 32e6 883d 43fb abbd
00000020: a31f 10bd a9fd 1ebe 45f9 bfbd ff44 043e
00000030: bdcc 29be be7d 313e 9f3e 32be 49d5 e53d
00000040: 5e5e a5bd d6e1 e3bd 5673 6e3d 3f9e b4bd
00000050: d7ae a73d 0285 c1bd fc94 dbbd 7ed5 fa3d
00000060: 1fd7 22be 0a2c 99bd a25a 833c 1b2f 253e
00000070: e8b1 e2bc a9a2 4e3d fb9e efbc 217b 993d
00000080: d8fe 3bbd d1a1 1cbe 2e5e f3bd 0f7f be3c
00000090: 20b1 543d bc29 9dba 65fa 853d 80d0 83bb
000000a0: 8329 403d 67aa ebbd 45e9 18bd bdd6 28be
000000b0: 5668 b53c 393e 0f3e b1d6 65bd 975f c73d
000000c0: cd66 df3d a1db e63d d139 d2bc f877 b73d
000000d0: d294 e8bd 4465 0dbe 9a74 b9bc ae6f fc3d
000000e0: 5701 143d bd80 573d ee3a bebd 4a58 f8bc
000000f0: da45 b83d db94 22be a62b 06be 45d1 2fbc
00000100: f4a8 2bbe d0da e4bd 08a4 173e 53d5 0c3e
00000110: e9b6 1f3e b8f8 333d 6eff 0ebe 470a d4bd
00000120: 0480 41bd 0bbb f2bd 93de a8bd 77b2 cebc
00000130: 2db3 093e 4a8d 163d 80c0 5ebc fd15 1abe
00000140: dd2f 023e c956 873d b0eb 4c3d d218 303d
00000150: 3652 033e 70fd bb3d 3735 2bbe a221 a83d
00000160: d7a1 d53d 103c 64bd 6373 0a3d 0ef9 883c
00000170: 982c 9bbd ca68 0e3e ecdd 99bd 3c82 13be
00000180: 063a a3bd ccd8 30be ba72 cb3d 6488 2fbe
00000190: 8a13 1c3e a8f5 c7bd 151d 35bd 01c7 293e
000001a0: bc2c 89bc 108e 2cbe 6f7c 453d 5398 e1bd
000001b0: a9fb 2dbe f6f2 3b3d d61f 78bd cc54 37bd
000001c0: d555 ad3d 630d a7bc 0f79 7d3d 4803 623c
000001d0: 2609 cebc b1da a83d f027 1fbe 06a1 253e
000001e0: 5318 853d 1ba5 2f3e 7ae7 163d 5feb 9bbd
000001f0: ec71 bdbd 0842 a8bd 241c d63d 4f56 2fbe
00000200: d70b 06bd b395 29be d0e8 08be 7507 243e
00000210: a661 1fbd 1e22 ebbd da2c ec3d 25e5 e63b
00000220: 1851 14be 4ee7 81bd b893 3dbd a851 113e
00000230: 91b4 b2bd 7f29 a3bd 3e55 85bd e1bd 6dbd
00000240: 48bb 4a3d 14f9 e5bd feab 1e3e 0159 eebd
00000250: 9f75 423c 83c5 27bd 0172 16be 4540 a5bd
00000260: ee1c 28be 4d96 3bbd 8b12 b4bd dd79 cabd
00000270: 04af 333d 1bb8 c4bb 3209 03bc f671 573c
00000280: 586f efbd f23e eb3d 468c 80ba f3d6 13bd
00000290: 15b3 2c3a ad84 aabd f367 14be 5a2b 31bd
000002a0: 082f 083e 566b 04be 30b5 b8bd b46e a43d
000002b0: b887 c73d 6a81 69bd 2766 07be ccf3 f43d
000002c0: 6041 ac3d c868 943a 2487 f7bd 180f fdbd
000002d0: 2cf2 bdbd 7df2 143e 859c 183e 6ed1 e8bd
000002e0: b2fb 6c3c 5b24 23bd 57b2 2abe 4d7b a3bc
000002f0: c956 203e cc52 0cbc aa27 8f3d 4133 023e
00000300: 827b eb3d 9272 343d dc7d 03be dfed 43bd
00000310: 2eed 03be e597 203e c138 a8bd 5fa3 c43d
00000320: 2757 4c3c a914 0b3e 819c 27bd e14f 243d
00000330: 95e1 053e a9a2 14be 29cd e1bd ec2b 92bd
00000340: 7d55 343e 413b 82bd 1bc4 15bd 610c 893d
00000350: 0e3e f6bd b59a 933b a257 1f3d bcd2 1ebe
00000360: cf5c aa3c 4c12 c0bd 83ef bfbd 8b19 1bbe
00000370: 4f9d 19bd 8e81 d43d dc9b 8e3d 8d5a 20be
00000380: de59 9a3d 3895 293e a496 5d3c 9e62 d3bb
00000390: 44a2 2abe 0442 013c ad39 14be 4a3f f13c
000003a0: 3d69 d73c b89d d5bd a620 0b3e 3262 09bc
000003b0: ea35 a4bd b35d 8f3b 3210 55bd 7dec 3cbb
000003c0: 44ae fe3c 3597 a63c 2861 d4bd e851 fa3d
000003d0: ece7 7b3d 6fab b33c d73b 25be a771 aabc
000003e0: 3bd6 113e fa5e 68ba 6864 31be 099f 7ebd
000003f0: dd90 a6bd d433 7f3d dff2 ff3d e55b e63d
-0.02263541 0.16980928 -0.009280253 -0.0890496 0.09702955 0.11900142 0.06684531 -0.08397534
-0.03518642 -0.15526451 -0.09373716 0.12916945 -0.16582008 0.17333123 -0.174067 0.112223215
-0.0807464 -0.11127059 0.05821546 -0.088192455 0.08187645 -0.09449197 -0.10721776 0.12247752
-0.15902375 -0.07479103 0.016034428 0.1613125 -0.027672723 0.050448094 -0.029250612 0.07494188
-0.045897335 -0.15296103 -0.11883198 0.023253946 0.051926732 -0.0011990587 0.065418996 -0.004022658
0.04691459 -0.11507111 -0.03733184 -0.16488166 0.022144478 0.1398858 -0.05611295 0.09735029
0.109082796 0.1127236 -0.025662335 0.08958429 -0.1135651 -0.13808161 -0.022638608 0.12325989
0.03613409 0.05261301 -0.09288584 -0.030315537 0.08997698 -0.15877096 -0.13102588 -0.010731046
-0.16763669 -0.11174548 0.14808667 0.13753252 0.15597118 0.04393837 -0.13964626 -0.10353523
-0.047241226 -0.11852082 -0.08245578 -0.025231583 0.13447256 0.036755838 -0.0135957 -0.1504745
0.12713571 0.0660835 0.050029457 0.04299242 0.1282433 0.09179199 -0.16719519 0.0820954
0.10431259 -0.055721343 0.033801448 0.016720321 -0.07576865 0.13907161 -0.07513031 -0.14405149
-0.079700515 -0.17270201 0.09933992 -0.17141873 0.15241829 -0.09763652 -0.044217188 0.1657982
-0.016744964 -0.16851068 0.048214372 -0.11015382 -0.16990532 0.045886002 -0.060577236 -0.044758603
0.08463637 -0.020392125 0.06188303 0.013794728 -0.025150847 0.08244837 -0.15542579 0.16174707
0.0649878 0.17152826 0.036841847 -0.07613253 -0.092502445 -0.082157195 0.10454586 -0.17122768
-0.032726135 -0.16561012 -0.13370061 0.1601847 -0.038911484 -0.11481117 0.11531992 0.007046359
-0.1448406 -0.06342946 -0.046283454 0.14191306 -0.087258466 -0.07966899 -0.06510399 -0.05804241
0.04949501 -0.112291485 0.15495297 -0.1163807 0.011868863 -0.040959846 -0.14691927 -0.08068899
-0.16417286 -0.045797635 -0.08792599 -0.09886525 0.04386808 -0.0060033924 -0.007997798 0.013149729
-0.11691159 0.11486615 -0.000980743 -0.036093663 0.00065879646 -0.08326087 -0.14492778 -0.043254234
0.13299191 -0.1293157 -0.09018934 0.080289274 0.09742683 -0.057008184 -0.13222562 0.11960563
0.08410907 0.0011322731 -0.12086323 -0.123563945 -0.09274706 0.14545627 0.14903457 -0.113680705
0.014464306 -0.039829593 -0.16669594 -0.019956255 0.15658106 -0.008564662 0.06989987 0.12714864
0.114981666 0.044054575 -0.1284098 -0.047834273 -0.12883446 0.15682943 -0.0821395 0.09601473
0.012471951 0.135821 -0.040920738 0.04011524 0.13074334 -0.14515175 -0.11025459 -0.07137284
0.17610736 -0.06358958 -0.036563974 0.06691814 -0.12023555 0.0045045265 0.038901933 -0.15510076
0.020796208 -0.0937849 -0.09371855 -0.15146463 -0.037503537 0.10376273 0.069633216 -0.15659542
0.07536672 0.16560829 0.013524685 -0.006450965 -0.16663462 0.0078892745 -0.14475127 0.029449124
0.026295299 -0.10430473 0.13586673 -0.008385228 -0.08018096 0.0043751835 -0.0520174 -0.0028827481
0.031088956 0.020335773 -0.103700936 0.122226536 0.061500475 0.021932332 -0.16136108 -0.020806147
0.14241879 -0.000886425 -0.17323458 -0.062163386 -0.08133099 0.062305287 0.12497496 0.11247996

blocks.0.attn.q_proj.bias f4 [32]
00000000: 20f6 933d 1b9f 1bbe 8eae 01bd 4e75 fdbd
00000010: 5965 ab3d 50a2 28be bca6 8f3d 6487 003e
00000020: c14d a83d 9ff5 d4bd 55c2 c63d e9a0 30be
00000030: 1915 6e3d a572 c5bc f8c0 f23d d172 293e
00000040: dcfc 533d e91a 863c 4cf3 47bd b648 1ebe
00000050: d00b 4e3d c97f 1cbd 55f3 27be b257 b7bd
00000060: 2ef8 813d f196 1b3e 8650 2ebd f26a 053e
00000070: 0729 e5bd 9313 e33d 00ab 903d 964b 34be
0.07224679 -0.15197413 -0.03166061 -0.1237589 0.0836894 -0.16468167 0.07014224 0.12551647
0.082179554 -0.10398411 0.09705035 -0.17248882 0.05812559 -0.024102518 0.11853212 0.16547705
0.051754817 0.016370254 -0.04881601 -0.15457425 0.050304234 -0.038207803 -0.16401418 -0.089522734
0.06346165 0.15194298 -0.042557262 0.13029078 -0.11189466 0.11087718 0.07063866 -0.17606959

blocks.0.attn.k_proj.weight f4 [32, 32]
00000000: 2ed0 e13d a796 f73d 10fa 0b3e 0cc6 523d
00000010: 2318 b93a 70ae 103e 1407 0e3e cd09 103e
00000020: 35c4 2abd 4df1 fdbd 7806 d2bd e5ce ba3d
00000030: 4299 5a3d e24c 64bd c002 1d3e 7e78 213c
00000040: efe7 14be 31ee 9ebc 8a7d d03d b542 09be
00000050: 579f 04be 8d63 17bd 3c87 0fbc 61bf f43d
00000060: 5c49 43bd 652c 1a3e b696 7cbc 5cbe a8bd
00000070: db37 cc3d e008 21be 1932 22be dbad 1e3e
00000080: 9037 b63d 2f1b 2ebe e0b1 bcbd f042 02be
00000090: 3f14 a83d acaf 15be 8818 b9bc 476f c5bd
000000a0: 251b bcbc 01c7 35be 59d4 f63d 6d93 d2bc
000000b0: 1249 ae3d 65fd f83c 3a54 9bbd ec43 18be
000000c0: 2280 18be 0ca5 253d 0420 c7bd 85d5 1f3e
000000d0: c641 353d 2dc5 51bd 3445 203c e61d b9bd
000000e0: 8491 0e3b 7796 e93d b3e7 dbbd c25a b5bd
000000f0: 0d0e e6bd e86d 06be 2cdc aabd f9e0 d0bd
00000100: 8e09 d7bd ad73 75bc b293 8bbd 7449 f9bc
00000110: c2d3 ccbd 73c4 463b bcd4 edbd c55a f0bd
00000120: 818f d43d 0bc1 263e 565f 73bc 2313 113e
00000130: c984 063e 8436 f03d e3b8 5c3d 7995 53bd
00000140: ecfa 9f3d 0788 0cbe 155c 2cbd ac01 b63d
00000150: f4ac 2bbe e1cb 483d a983 e0bb f59f 23bd
00000160: d4d7 753d 783b c639 b617 073e 092e e53d
00000170: 00d9 c7bc 4d39 d7bd 254b 0f3e 864e 6abc
00000180: 420f fabc 7108 cb3d 311f febc c7b2 683d
00000190: fd9c 0e3d 41b7 e53c 833f 51bd 68c5 02be
000001a0: f6d3 2f3e d386 f13d 4ab6 89bd 43e2 1bbe
000001b0: 2338 5b3c e682 0c3e d92b febd a09f 083e
000001c0: 43d0 41bd 8433 1abe a047 113e cdd7 1a3e
000001d0: 629e 58bd 860b 923d 26cf b6bd cfe8 393d
000001e0: 8acd fc3d df1c 6b3d ba29 273e 0b2f 15be
000001f0: 7fda 2bbe 8d16 043d 79a9 843d 7568 96bd
00000200: 9cf4 763d d772 863d 6994 843d 8578 6dbd
00000210: dbab 323d 35a2 1e3d 4fab 953d 92df 0bbc
00000220: 96af 553d c884 223e 9b2c 2f3d cfd8 30be
00000230: 128e 08be f006 8dbd b236 343e 3146 a23d
00000240: 29ae ffbc de79 48bc 4582 603d ecfe 81ba
00000250: e291 05be 15ac 08be 3f4e 8dbd b5f9 edbd
00000260: 450c 30be d8db d0bd 5121 4bbc c896 623d
00000270: 7127 b8bd e438 d53d d218 1d3e ca12 dfbd
00000280: 8f16 0abe 29da d8bd 60af af3d 5e53 d13d
00000290: 24e6 b3bc 375c 243e 5a44 e73c 108d 62bd
000002a0: f4cc 17bd 56a8 2f3e 7397 0abe 8f24 20be
000002b0: 781c 32be b677 ffbd 6041 8dbd dfd8 1bbe
000002c0: 5baa 98bd 58ad 76bd 7bd9 e23d f2fb 163e
000002d0: b310 933d a9b1 233e bcf6 0c3e b12c c53d
000002e0: 30e7 34bb 2ebe ebbd 55ff 31be 86c7 633a
000002f0: c893 253e bd9c 01bd 9a68 21be 1604 073d
00000300: e823 c4bd ba4d a9bc bb5a 77bd 165f 353e
00000310: f0ab 233e a87f 8abd 1b7c f8bb 3992 233d
00000320: f9f3 da3d 1ab7 14be 8e30 093e c3f3 17be
00000330: 39ba c9bd 90a5 07bd b7ca e43d 72ad 103e
00000340: 7606 993d 6450 b4bd 49b1 bcbb 7e6a 13bb
00000350: d394 20be b1b2 aebd aecf 8b3d fc8d 2cbe
00000360: 552d 073d c440 ffbd ed52 a53c bbdd 80bd
00000370: 85c1 84bc a5c5 843c dbf6 91bd 4fee 2b3e
00000380: 050a 663c e6f7 5dbd a50a 23be a93a fbbd
00000390: 6343 523d 9e12 30be f047 e33c aa42 143e
000003a0: 90fb 893d bd79 a63d ca08 debc 1644 20be
000003b0: a43e 1abe 8a42 41bd 0e78 9fbb 2487 253e
000003c0: b127 073e 1fed 563d 4492 c8bd fc0b 063e
000003d0: ee9c 233e 72a3 c5bd 34db 9b3d 1ed6 27be
000003e0: 0351 1f3e 2866 8f3c 02b7 ec3d c959 35bd
000003f0: cda3 b6bd 3460 343e cae7 44bd a6ba 02be
0.11026035 0.120892815 0.1366961 0.051458403 0.0014121573 0.14129043 0.13869888 0.14066239
-0.041691024 -0.1239954 -0.1025514 0.09121493 0.053368814 -0.055737384 0.1533308 0.009855388
-0.145416 -0.019400688 0.10180195 -0.13404353 -0.12951408 -0.036960173 -0.00876027 0.11950565
-0.047677383 0.15055998 -0.015416792 -0.08239433 0.09971591 -0.15726042 -0.15839423 0.15496008
0.088973165 -0.17002557 -0.092136145 -0.12720847 0.08206987 -0.14617795 -0.022594705 -0.09640365
-0.022962162 -0.17751695 0.12052221 -0.025705064 0.08510031 0.030394265 -0.07584424 -0.1486966
-0.14892629 0.040440604 -0.09722903 0.15608795 0.04425218 -0.051213432 0.009782124 -0.09038906
0.0021754215 0.11405652 -0.107375525 -0.08855201 -0.11233149 -0.13127863 -0.08342776 -0.1019916
-0.10499869 -0.014981193 -0.0681528 -0.030430533 -0.10001327 0.0030329495 -0.116128415 -0.11736063
0.10378934 0.16284578 -0.014854273 0.14167456 0.13136591 0.11729148 0.05388726 -0.05165622
0.078115314 -0.13723765 -0.042080004 0.08887038 -0.16765195 0.04902256 -0.0068516326 -0.03994747
0.060020283 0.0003780981 0.13192639 0.11190421 -0.024395466 -0.10508976 0.13993509 -0.014300948
-0.030524854 0.099137194 -0.031020733 0.05681112 0.034817684 0.028041484 -0.05108596 -0.12770617
0.171707 0.11793294 -0.06724222 -0.15223031 0.013380083 0.13721809 -0.12410707 0.13342142
-0.047317754 -0.15058714 0.14187479 0.15121384 -0.05288542 0.07131104 -0.08926229 0.04538804
0.12343891 0.05740058 0.16324511 -0.14568727 -0.16782568 0.03224807 0.06477637 -0.07344142
0.06029187 0.06564873 0.064736195 -0.057976265 0.043620925 0.03872891 0.07308065 -0.00853719
0.052169405 0.15870965 0.04276715 -0.17270206 -0.13335446 -0.06886089 0.1759899 0.07923544
-0.031210976 -0.012236087 0.054811735 -0.0009917892 -0.13043931 -0.13346894 -0.0689969 -0.116198935
-0.1719218 -0.10198182 -0.01239808 0.055319577 -0.08991898 0.10411242 0.153415 -0.108922556
-0.13485168 -0.10588486 0.08578372 0.10220979 -0.021960326 0.16050802 0.028230835 -0.05531031
-0.037060693 0.17154059 -0.13534336 -0.15638946 -0.17393672 -0.12474005 -0.06897235 -0.15219449
-0.07454368 -0.060223907 0.11076637 0.14744547 0.071809195 0.1598574 0.13765997 0.09627665
-0.0027603619 -0.11510883 -0.17382558 0.0008689094 0.16169655 -0.031643618 -0.15762559 0.03296288
-0.09577161 -0.020666946 -0.06038926 0.17712054 0.15983558 -0.0676263 -0.007583154 0.03993437
0.10691065 -0.14522973 0.13397428 -0.14839081 -0.09849972 -0.033116877 0.11171477 0.14128664
0.074719355 -0.08804396 -0.0057584387 -0.0022493894 -0.15681772 -0.085301764 0.06826721 -0.16851038
0.033002216 -0.12463525 0.020181144 -0.06292292 -0.016205559 0.016207526 -0.07127162 0.16790126
0.014040475 -0.054191492 -0.1592203 -0.12267048 0.051333796 -0.17194602 0.027744263 0.14478555
0.06737435 0.081286885 -0.0271038 -0.15650973 -0.15062958 -0.047182597 -0.0048666066 0.16164833
0.13198735 0.05247223 -0.09793523 0.13090509 0.15977833 -0.09650315 0.07610169 -0.16390273
0.15558247 0.017504767 0.115583435 -0.04427508 -0.08917961 0.17614824 -0.048072614 -0.12766513

blocks.0.attn.k_proj.bias f4 [32]
00000000: 8482 d1bb 5a6e d3bd d1ad bf3c c1ca 2c3e
00000010: 09a6 b53c 8894 0a3d a29e 053d 030a 28bc
00000020: f076 0f3e c94d c5bd cb3d 17bd d56c 053e
00000030: dfa7 a7bd 09c0 78bd 7a9d 823d 5976 fc3d
00000040: 8090 453d aa95 6c3d aa3b 55bc b44e c8bd
00000050: 21fc 283e 87dc 323e 095a 0bbe 656e 433d
00000060: ebf2 c93d b020 c7bc d05a c03b 4ba3 07be
00000070: 778b f73b 5ff7 23bd 1500 f63d 8ed7 39bd
-0.0063937325 -0.10323782 0.023398312 0.1687422 0.022173898 0.033833057 0.032621987 -0.010256293
0.14010215 -0.09633977 -0.036924165 0.13029797 -0.08186316 -0.060730014 0.063776925 0.123272605
0.04823351 0.05775992 -0.013014713 -0.097806364 0.1650243 0.17466937 -0.13608564 0.047712702
0.09860786 -0.024307579 0.0058702007 -0.13245885 0.0075544673 -0.040030833 0.120117344 -0.045371585

blocks.0.attn.v_proj.weight f4 [32, 32]
00000000: 927f 133e 1931 f1bd e527 b13c 6f0e 543d
00000010: 277d b23d 3b8b ae3c b999 7e3d b4c3 96bd
00000020: c47c f73d 5c51 343e 0637 adbd a866 91bd
00000030: 0dd6 04be 7f07 febd 2993 9b3b 526f 9bbd
00000040: 1b77 803d a3d4 85bd dd4a bc3d 839d 2c3d
00000050: 94b1 0ebe 2fac b7bd 5d18 333e e31b 31bd
00000060: 389b 973d 710d 283e 0e2f aa3c b90e be3d
00000070: 789c 37bd 2e33 acbc 69fb 213d ee17 0e3d
00000080: 9440 f0bd 9e1c 0b3e dfff 68bd 911c 1b3e
00000090: 65cd 1f3d 3443 313e 1565 c93d 3027 24be
000000a0: 93a6 243e 8d35 f5bd 5960 1a3e 9220 b53d
000000b0: 810b 2fbe 746b 583d 3d22 1cbe 8dda 113e
000000c0: c45b 1abe 586c 6bbd 819a 0c3e e4fe 08bd
000000d0: dd7c a9bd f2ec acbd 2e2b 1abe 24f1 b43d
000000e0: a88d 5a3d 00a2 7b3c 0317 263e f9c4 3e3d
000000f0: f609 a73d a414 b63d e116 313e bf23 de3c
00000100: debc 163e b677 663d f6e7 0c3e e07e b03c
00000110: c50f 22be 49ab a13c c663 bdba 4400 63bd
00000120: 368c 0fbe 8e18 b9bd 5b28 d7bd fe4c 1abd
00000130: fbcc 1fbd 808a f63d be0e a83d 3736 dabc
00000140: 30d7 c53d 1541 263e 3624 2abe f164 8bbd
00000150: e2d1 ec3d c7a7 723c ee38 abbc 416e b93d
00000160: 35d4 44bc c4f9 223c 2140 d13d c4dd c7bd
00000170: dbc3 f2bd b4a2 d6bd c3dc c8bd 7018 dd3d
00000180: db83 08be 029e 52bd 566b 1bbb e5c4 e5bd
00000190: 9620 a93c 2b11 84bc 2c2f c63d 0fb9 12bd
000001a0: 7ba1 17be 3fe8 053d dfeb 563d 96af 6f3d
000001b0: e2d8 72bd 9c33 123e c2c2 76bd 9d0d cebd
000001c0: 2e48 17be df43 d93d 4f43 923d 5194 e43d
000001d0: 0004 0e3e 9fce 6abc 187e 02be 06f0 86bd
000001e0: 1394 f83d 0f2a adbd 09d6 f53d f983 283e
000001f0: 970d 6bbd 3c88 9abd 1f24 b6bd 7b49 5b3d
00000200: 894c 2fbe 089e 173e 9027 16be 4d1e af3d
00000210: c6a5 ab3d 43b2 9d3d a8ed fd3d 4964 393d
00000220: d283 90bd 9733 8abc 229c 2e3c 10fe 1b3e
00000230: f758 053e 0a6a 9dbd 4dea 8a3d 407f 15bd
00000240: d3d5 923d cd55 14be 1358 913d 6a35 6d3d
00000250: 698c 6ebd 9c5c 2fbd 38d1 e5bd d141 d8bd
00000260: b840 043e 70a9 58bd 512f 293e 9158 783d
00000270: 9356 a23c e48a 85bd aa4e 23be 44d3 c33d
00000280: a6cc 163e c928 1bbd 2a29 2c3b 01c4 9e3d
00000290: dd58 e13c 103c 333e af9e b0bb 400c e9bc
000002a0: 171f 1d3e 3e48 28be c0ff 4cbd 6896 fa3d
000002b0: a75b 03bd 6a57 833d 5fe1 1a3e 01f3 183e
000002c0: 0c91 333d 97a8 043e 4025 f73d 444d 853d
000002d0: 8cbb 28be 1a46 f7bd 6a55 f73d b3de 35bd
000002e0: 0bbb 263e 83e8 3d3c 8681 6d3d 43e0 02bc
000002f0: c268 b5bc 5a5e fe3d 365e c53d 1621 d53d
00000300: acd4 003d 824e 253e 399f f43d fa59 cf3d
00000310: e9dd 7dbd 3c7c a6bc cae6 c23d e703 043d
00000320: ca37 043e 08ea 0cbe 9375 273e e768 183e
00000330: e6bc 303e 7b3d 94bd 38a5 a1bd b92e 0dbe
00000340: da73 d9bd 7694 0cbd 5b09 db3d 08d6 20bd
00000350: 919d 8bbc 486a 35bd 6c85 23bd 44b0 19be
00000360: 1783 fd3d fdc3 03be 76c1 c8bc 2a6c 1fbe
00000370: 3f63 bcbd 5df4 00be 75d7 1a3e 419a 92bd
00000380: 816e f1bd 468c 023e 1595 e93c 135e dabd
00000390: 6361 1e3e 0abe edbd b2db 15bc 48e8 653c
000003a0: 73bd 0b3e d55d 8d3d a0ad 2c3d 83f4 f8bd
000003b0: 799c a6bd d4b4 21be a4f8 e0bd 8d40 113e
000003c0: 9e3c f73d 1777 58bb 8fba 18bd 7984 d43d
000003d0: 767f ac3d 4de8 ab3b 615f 11be 4430 64bd
000003e0: 9e8c ffbd 9581 82bd 1d61 4fbd 89be d83d
000003f0: 18bc 423d 9725 553d fbb8 babd 414f 5b3d
0.14404133 -0.11776943 0.021625469 0.051771577 0.08715277 0.021306625 0.06215832 -0.07361546
0.12084344 0.17609161 -0.084577605 -0.07099658 -0.12972279 -0.124037735 0.0047477675 -0.07589592
0.062727176 -0.06534698 0.091939665 0.042142402 -0.13934928 -0.08968388 0.17489763 -0.043239485
0.074026525 0.16411377 0.02077439 0.09280152 -0.044826955 -0.021020498 0.039546404 0.03469079
-0.11731067 0.13585135 -0.056884643 0.15147616 0.03901424 0.17310792 0.09833733 -0.16030574
0.16079168 -0.119731046 0.15075816 0.08844103 -0.17094232 0.05283685 -0.15247436 0.14243527
-0.15074068 -0.05747637 0.13730814 -0.033446208 -0.08275769 -0.08443631 -0.15055534 0.088350564
0.05335775 0.015358448 0.16219716 0.046574567 0.08156197 0.08890656 0.17293884 0.027116654
0.14720485 0.05626651 0.13760361 0.021544874 -0.15826328 0.019734995 -0.001444929 -0.055420175
-0.1401833 -0.090378866 -0.10505744 -0.03767108 -0.039013844 0.120381355 0.08205937 -0.02663718
0.096601844 0.16235764 -0.16615376 -0.068063624 0.115634695 0.014810509 -0.02090117 0.090542324
-0.012013485 0.009947244 0.1021731 -0.09759095 -0.11853763 -0.10480252 -0.09807732 0.10795677
-0.13331549 -0.05142022 -0.00237151 -0.11219195 0.020645421 -0.016121468 0.09676966 -0.035821017
-0.14807694 0.03269219 0.052471038 0.05851706 -0.059288867 0.142775 -0.06024433 -0.1006119
-0.14773628 0.106086485 0.07141744 0.111611016 0.13868713 -0.014331489 -0.12743413 -0.065887496
0.12137618 -0.08455288 0.120037146 0.16456594 -0.057386007 -0.07545516 -0.08893608 0.053536873
-0.1711904 0.14806378 -0.1466353 0.08550701 0.08381228 0.07700016 0.12398845 0.045261655
-0.07056393 -0.016870303 0.010657342 0.15233636 0.13022219 -0.07686241 0.067829706 -0.03649831
0.0716969 -0.14485855 0.07096877 0.057912268 -0.058239374 -0.04281293 -0.11221546 -0.105594285
0.12915313 -0.052895963 0.16521956 0.06063134 0.019816672 -0.06520632 -0.15947977 0.0956178
0.14726505 -0.037880693 0.0026269653 0.077522285 0.027508194 0.17503381 -0.0053900103 -0.028448224
0.15343891 -0.16433808 -0.05004859 0.12235719 -0.03206983 0.06413157 0.15125035 0.14936449
0.0438395 0.12954937 0.12067652 0.06508878 -0.16477793 -0.12073918 0.12076838 -0.044401836
0.16282289 0.01159108 0.05798485 -0.0079880385 -0.022144679 0.1242034 0.0963711 0.10406701
0.03145282 0.1614323 0.11944432 0.101245835 -0.06197921 -0.020322911 0.09516676 0.032230284
0.12911907 -0.13761151 0.16353445 0.14883767 0.17259559 -0.07238289 -0.07892841 -0.13787355
-0.106178 -0.03432127 0.10695144 -0.039266616 -0.017042907 -0.04429081 -0.039922163 -0.15008646
0.12378519 -0.12867732 -0.024506312 -0.15568605 -0.09198617 -0.12593217 0.15121253 -0.07158328
-0.11788655 0.12748823 0.02851347 -0.106624745 0.15466838 -0.11608513 -0.009146618 0.014032431
0.13646488 0.06902663 0.04215777 -0.12156012 -0.081353135 -0.15791637 -0.109849244 0.1418478
0.12072109 -0.0033029967 -0.03728729 0.1037683 0.08422749 0.0052461983 -0.1419654 -0.055710092
-0.124779925 -0.06372372 -0.050629724 0.10583217 0.04754266 0.0520378 -0.091173135 0.05354238

blocks.0.attn.v_proj.bias f4 [32]
00000000: 4006 36bc 9dda d1bd adb9 ce3d e683 f7bd
00000010: 78bb be3d 2d8a 09be 41b1 05be 6efe 26be
00000020: a864 cebd e7ca febd 7328 253d 5f0d 643d
00000030: 3a57 b43d 22c5 bd3b accc 1f3e 5523 823d
00000040: 2e3b 84bd 6146 b13d df1f 6dbd d8bf 333e
00000050: 8328 543c e836 be3c ee5e 31bd 2f93 1bbe
00000060: 6798 033e 13a4 f4bd e105 c23d 52ef 0e3b
00000070: 2a1f 003e 2ffb b03d 1d16 1ebe f9af 09be
-0.011109889 -0.10246775 0.100940086 -0.120857045 0.093131006 -0.13431616 -0.13055898 -0.16307995
-0.100777924 -0.12441044 0.04032178 0.055676814 0.088057 0.0057913223 0.1560542 0.06354395
-0.064566 0.08656002 -0.057891723 0.17553651 0.012949112 0.02321954 -0.043303423 -0.15192865
0.12851106 -0.11945357 0.094737776 0.0021810126 0.12511888 0.086416595 -0.15438123 -0.13446034

blocks.0.attn.out_proj.weight f4 [32, 32]
00000000: 2980 d13d 8fab 93bd 0f40 2dbe b284 193e
00000010: b01b fc3d 2e5b a13d 0342 efbd 3e85 293b
00000020: 80ae da3d 8d9e 78bd 6553 c53d 9570 183e
00000030: 0426 143e 23da 723c d233 f53d b47c debd
00000040: b45d 0b3e b836 cc3d d3ac ea3d 7b56 debd
00000050: c04d 683b 0f54 173e 4cd9 cabd 159b 0bbd
00000060: 470f 97bb 3517 2ebe cdf4 4cbc 8631 b43c
00000070: 6628 a0bd fd43 15be afc4 a63b e707 11bd
00000080: ae22 1c3d 7e51 b2bd b449 9e3c b6e3 103e
00000090: d8a0 33be 5a25 a53d 5803 f8bd 5372 03bd
000000a0: cb6f f03d f645 e1bc 047f e93d e1f8 92bc
000000b0: 4632 5c3d 3975 50bc 5a31 89bd 7eec 28bc
000000c0: f3d7 743c 5a0e 2e3e 16be 943d 83dd 183e
000000d0: 76e0 ac3d be4e 683c e405 853d 0459 07be
000000e0: 5465 a83d 03ba 33be 518f 113e c365 bb3d
000000f0: 3791 dc3c d6e1 2b3e 3f33 60bd adcd 84bd
00000100: 0795 bdbd 5af5 eb3d d30c 753b 1fb7 02bd
00000110: ebe2 38bd 5414 a9bc 0ca5 133e ddfd 35bd
00000120: 76ff 99bd 73b0 d53d 67be 123e 8c5e 8d3d
00000130: 173a fabc ee72 943d 70e1 a2bd cd62 8e3d
00000140: 0be6 9b3d 323a 12be 0698 063e e876 0a3e
00000150: 195b d8bb 338a c6bd 13b6 bf3d 5251 10be
00000160: f4cd e6bd 5a2a 33bc 8adf ea3d a757 b53d
00000170: b02e e6bb 5cab 0e3d e4d6 12be e9a8 7c3d
00000180: 1e22 fb3d 367e 083e 4071 d03c 2089 6f3c
00000190: bf12 3fbd 6a26 a13c 4e4c 78bd 3cb2 173d
000001a0: 58c9 9bbb edc0 d93d ce4f 833b e179 0a3e
000001b0: 76b4 143e 4c41 26be 0174 df3c 3bf1 883c
000001c0: 1d46 3a3d f6ef 33bd cdf5 243e 87fc b33d
000001d0: 2c73 2a3e 8a33 05be e7e0 a43b df3a 173e
000001e0: c2eb 8abc 1ea7 523d 7e95 0e3c d2aa cebd
000001f0: 45db 31be b7f1 22bd 58e1 123e 525d 1a3c
00000200: 4421 14be a0cb dbbd 9f4e d53d 29aa 95bb
00000210: fb97 d0bd 50a4 debb 2660 a93d ac09 cbbd
00000220: f011 9bbb 76ea 183e 62d3 27be a905 12bd
00000230: 315c 0cbd a9be 183e 4f86 103e 6cf0 d7bd
00000240: 7a9f 2dbe 043b e0bd 1722 97bd 2150 92bd
00000250: 4833 d1bd 82cc 7fbd 7728 1c3d c040 903d
00000260: 93da b5bd 9831 db3d bbdf f8bd 240f 2ebe
00000270: 22dc 183d 96b3 82bd 712f e6bd 4b99 123e
00000280: 542a cd3d 8aa0 45bd 869f 053e f337 2fbe
00000290: 71d4 08be 9ac8 c93c c5bd 273e cf39 90bc
000002a0: 6350 103e 6e78 103e b66a 0e3d 5f57 de3d
000002b0: 99e9 35be 3b10 0a3e 0d7c 8fbd 0706 8c3d
000002c0: 2289 0dbd c694 a13d f3fb 753d 854a 03be
000002d0: 7c4c c83d f0a3 113d bb6a 203e 2bb9 2cbe
000002e0: ee64 ff3d 55b0 b93d 5833 4abd 99d4 8d3d
000002f0: 904c 2dbe e424 39bc f4bd 07be eea0 4fbd
00000300: d545 9a3c 0a5d 943d 280c 5d3d 1f77 fa3d
00000310: cba7 22be 5715 efbd e3d4 0cbd 89a7 ce3d
00000320: 06c9 b9bc 9e08 3dbc 73f6 313e ccba 10be
00000330: e00d 3c3c 85af f03d 2e44 e2bd 4b59 61bd
00000340: 87e9 1f3e a1d2 a4bc 6347 293c c290 513d
00000350: f759 27be 4bba babc 3f0c 303e bd22 063e
00000360: 6f22 2cbd fa9d 39bd 6555 a63d aaed d53d
00000370: d712 e43d fc5b 083d ce24 05be 8147 49bd
00000380: e33e 8d3c 20a5 32be a759 28be 102d b93d
00000390: 72fd 293d bc42 293d 3090 16bd 913c 66bd
000003a0: 2ced 53bd 09ef 0abd 7bcb e9bd 67fe bbbd
000003b0: 41b8 1abe a2d3 683c 25c4 22be 2646 e3bb
000003c0: 5226 243e b7c2 1d3e a723 1bbe ba84 913d
000003d0: e049 d13d 98cd afbd 87b9 24be ab9e fd3d
000003e0: ede8 2bbd 4bb8 07be 768e 69bd 7f8d 013e
000003f0: bee4 33be 60f5 5f3d d6e7 c83d 459e 53bd
0.10229523 -0.072104566 -0.16918968 0.14992025 0.123099685 0.07878719 -0.116825126 0.0025866772
0.106778145 -0.06069808 0.09635047 0.14886697 0.14467627 0.014822516 0.119727746 -0.10863629
0.13609964 0.09971374 0.11458745 -0.108563386 0.0035446733 0.1477816 -0.09904727 -0.034083445
-0.0046099755 -0.1700104 -0.012509537 0.02199627 -0.078202054 -0.14576717 0.0050893645 -0.035407927
0.03811901 -0.0870695 0.019322254 0.14149365 -0.17541826 0.08063765 -0.12110013 -0.03209145
0.11740073 -0.02749918 0.114011794 -0.01794094 0.053758882 -0.012723261 -0.06698866 -0.01031029
0.014944064 0.16997662 0.072628185 0.1492825 0.0844125 0.01417893 0.06495264 -0.1321755
0.08222452 -0.17551427 0.14214827 0.09150269 0.026924713 0.16785368 -0.054736372 -0.06484542
-0.0925694 0.115214065 0.0037391677 -0.03191292 -0.04513828 -0.020639576 0.14418429 -0.044431556
-0.075194284 0.10434046 0.14330445 0.06902799 -0.030545278 0.072484836 -0.07953155 0.069524385
0.076122366 -0.14280012 0.1314393 0.13521922 -0.0066026566 -0.09694328 0.093609 -0.14093521
-0.11269751 -0.01093539 0.11468418 0.08854609 -0.0070246086 0.03483139 -0.14339787 0.061684523
0.12262367 0.13329396 0.025444627 0.0146200955 -0.046648737 0.019671638 -0.060619645 0.037035212
-0.0047542267 0.10632501 0.004007316 0.13523056 0.14521965 -0.16235846 0.027276995 0.01671659
0.04547702 -0.043930016 0.1610939 0.087884 0.16645497 -0.13007942 0.0050316933 0.14768551
-0.016958121 0.051428907 0.008702634 -0.10091175 -0.17368801 -0.0397813 0.14343774 0.009421663
-0.14465815 -0.10732198 0.104153864 -0.004567404 -0.10185238 -0.00679449 0.08270292 -0.09913954
-0.004732363 0.1493319 -0.1638923 -0.03564993 -0.034267608 0.14916481 0.14113735 -0.10543904
-0.16955367 -0.10948756 -0.07379549 -0.071441896 -0.10214859 -0.062450893 0.038124528 0.070436
-0.0887958 0.10702819 -0.12152048 -0.16997963 0.03731931 -0.063819095 -0.112395175 0.14316289
0.10017839 -0.048248805 0.13049135 -0.17111187 -0.1336229 0.024631787 0.16380985 -0.01760569
0.14093165 0.1410844 0.034769736 0.108565085 -0.17764892 0.13482754 -0.07006083 0.06837087
-0.03455461 0.078897044 0.06005473 -0.12821396 0.09780213 0.035556734 0.15665714 -0.16867511
0.12470423 0.09066836 -0.04936537 0.069253154 -0.16923738 -0.011300299 -0.13256055 -0.050690584
0.018832127 0.07244308 0.05396667 0.12229752 -0.1588432 -0.11673992 -0.034382712 0.100905485
-0.022678863 -0.011537699 0.17379169 -0.14133757 0.011477917 0.11752228 -0.110481605 -0.055016797
0.15616427 -0.020119967 0.010331961 0.051163442 -0.16342913 -0.02279391 0.17192172 0.13099189
-0.042025026 -0.045316674 0.081217565 0.104457214 0.11136406 0.033290848 -0.13002321 -0.049140457
0.0172419 -0.17445803 -0.1644045 0.09041798 0.04150147 0.04132341 -0.0367586 -0.056210104
-0.051739857 -0.033919368 -0.11415764 -0.09179383 -0.1510935 0.014210613 -0.15895136 -0.0069358526
0.16030243 0.15406309 -0.15150319 0.07105394 0.10219169 -0.08584136 -0.16086398 0.12383779
-0.041970182 -0.13253896 -0.057020627 0.12651633 -0.17567727 0.054677367 0.09809844 -0.05166461

blocks.0.attn.out_proj.bias f4 [32]
00000000: e766 9a3d 92ed d2bd 061a dd3d 6d22 c73b
00000010: 9b25 2cbe d206 693c e5d8 e4bd 767c c6bd
00000020: 1e63 dc3c f439 a73d 5934 3ebd 9141 c73d
00000030: 9dd0 b4bd fe71 00be 49cb 01bd fa18 02bd
00000040: 8db3 23be 3ec6 dbbd edf7 8e3d bdd0 76bc
00000050: 5287 dc3d 104b 51bd 0a41 6abd a6bc 00be
00000060: 8190 22be 33d6 fdbd ec52 4b3d 1158 e5bd
00000070: d6e9 c6bd f94e cabd f4ed 153e 5905 d83d
0.07539158 -0.10299219 0.10795979 0.006077102 -0.1681122 0.0142228175 -0.11174182 -0.09691708
0.026902732 0.081653506 -0.04643664 0.09729303 -0.08828852 -0.12543485 -0.03168801 -0.0317621
-0.15986462 -0.10731171 0.06980882 -0.0150644155 0.10767998 -0.051096976 -0.057190932 -0.12571964
-0.15875436 -0.12394371 0.049639627 -0.11198438 -0.097125694 -0.09878344 0.14641553 0.10547895

blocks.0.ln2.ln.weight f4 [32]
00000000: c503 803f db25 803f 4709 803f 68fe 7f3f
00000010: 3ce0 7f3f bbad 7f3f ffbb 7f3f 6d06 803f
00000020: 9414 803f a9d3 7f3f 2c40 803f a78a 7f3f
00000030: 0ccc 7f3f 97be 7f3f 29d3 7f3f c1ba 7f3f
00000040: 74bd 7f3f 551a 803f 8cf6 7f3f 9223 803f
00000050: be08 803f e72d 803f 14af 7f3f d4cd 7f3f
00000060: c3ef 7f3f 9fe5 7f3f 6b1d 803f c644 803f
00000070: 2910 803f d5cf 7f3f b7b4 7f3f 6d16 803f
1.000115 1.0011553 1.0002831 0.9999757 0.9995153 0.99874467 0.99896234 1.0001961
1.000628 0.9993234 1.0019584 0.9982094 0.99920726 0.9990019 0.9993158 0.9989434
0.9989846 1.0008036 0.99985576 1.0010855 1.0002668 1.0014008 0.99876523 0.99923444
0.9997522 0.9995975 1.0008978 1.0020988 1.0004932 0.999265 0.99885124 1.0006844

blocks.0.ln2.ln.bias f4 [32]
00000000: c0c6 14bb 2dc3 b63a 941b e73a 0f72 89ba
00000010: eb14 87ba e953 b2ba 36b6 8cb9 b2b3 e3ba
00000020: 08a1 923a 8ccc 053b e501 4fba 49a0 45ba
00000030: 5b98 7dba 4f43 08bb 5087 9b3a 1d49 b13a
00000040: b2ed b4ba cecc fcba cfe3 c1b9 028d 2c3a
00000050: 4da6 853a 86df bbba 6214 903a 47c3 36ba
00000060: 18d3 113a 2dc4 053b 3013 93ba 9a53 f3ba
00000070: 5829 a039 11dc 303a afc1 0abb e7d1 4e3a
-0.0022701472 0.0013943665 0.001763212 -0.0010486263 -0.0010305917 -0.001360533 -0.0002683864 -0.0017372279
0.0011186907 0.002041611 -0.00078967056 -0.0007538838 -0.0009673887 -0.0020792072 0.0011865888 0.0013525818
-0.0013803749 -0.0019287111 -0.0003698156 0.0006582291 0.0010196656 -0.0014333583 0.0010992403 -0.00069718476
0.00055627665 0.002041112 -0.0011220928 -0.0018564344 0.00030548382 0.00067466596 -0.0021172573 0.0007889554

blocks.0.ff.fc1.weight f4 [128, 32]
00000000: 570b 9cbd 0c0a 2fbe 6f55 183e f761 6dbd
00000010: 51fe 113e c019 e6bc d326 24bd 283c d13c
00000020: 906e 96bc e788 313e a4e1 613d 07c0 0abe
00000030: 7fa5 7ebb 8b56 19be 78dd 24be eed6 c93c
00000040: 000b 743d b7b3 f4bc ff3b 11be e8ff f3bd
00000050: fdc6 ebbd b331 993d 6019 063e 30e1 20be
00000060: a8e8 0d3e a2fe d2bd 1315 a43d 0af6 8a3d
00000070: 3922 89bd b3ee 003d e9e5 033e d256 0ebe
00000080: 64f0 75bd f83b 0a3e 214c 91bc 4f93 403d
00000090: d081 10be 7660 3a3d 7c8e f23c ac91 3bbd
000000a0: c174 4a3c 85d5 8f3d 82b7 f23d f077 b7bc
000000b0: f6f8 eebd 0df3 aa3d 13ca 4abd 3999 12be
000000c0: 81d5 163e 3107 ec3d e9c9 683d 908b 42bd
000000d0: 3502 0ebe 76ec e03c 3eaa da3d 1b0f 043d
000000e0: d31a 0ebe 5364 c53d 52c2 19be a383 16bc
000000f0: b6c1 313e 5fda 1dbe 213a bdbd c24f 133e
00000100: 1b2e 8e3d d70b 873d 3921 e13d 94d5 bb3d
00000110: f396 47bd 891d 2dbd 86de 023e 003c 11be
00000120: 7b2b a83d 37f5 a6bd 63e7 3cbd e241 223e
00000130: de2f 13be afd6 1b3d 9975 d3bd 038b 12be
00000140: b123 2cbe 369b c53c c8e5 5fbd 663d ec3d
00000150: 30cf 10be 62f9 bebd 744d 22be 4655 d53d
00000160: 98a4 0f3e a12d bd3c 19b1 31be 281d dabd
00000170: b86b a2bd 0448 00be 846c d6bd 39fa 26bc
00000180: a2fa 8cbd b1d8 2a3d 81c3 2ebd 91c9 a13d
00000190: d930 4d3d 5f16 13be c8fb f8bd bbb2 253e
000001a0: 1c6d 04be 4efe b43d 0000 c2bd 4990 21be
000001b0: ec30 a6bd 6848 933d b9cc d0bc 9acb 07be
000001c0: c0eb de3d 4ee2 e33d 87b8 323e e659 a93d
000001d0: c19b 23bd 9904 513c 466e 8a3d ee79 87bd
000001e0: d915 00be 6c41 22bd 3410 743d ce35 6b3d
000001f0: 73c5 e73d 672a b9bd ff04 de3c e111 59bd
00000200: 16df 133e 4b5d a03c 0bb1 2ebd ab62 023e
00000210: 77ec ebbd 3ad2 303e c57e 84bd 953a b03c
00000220: 0328 ca3d 2db3 2d3e c912 f3bc 67f0 0cbb
00000230: cabc 983d 3c02 a13d 7a96 183e f427 c4bd
00000240: 0533 6ebd 7d32 84bc e5b5 2bbe f215 0f3e
00000250: f846 133d 372b b8bd b792 333e da44 093d
00000260: 1cf6 323e 3167 343e 74cd ed3c 958a 123e
00000270: a163 a6bb 654c 50bc 1383 21be b7c5 51bc
00000280: 4411 a4bd 9d7f 013e c70d 9cbc d331 c8bd
00000290: 598d 7a3c f9d5 213e 5595 3bbc 6b6d b03d
000002a0: 70af 2d3e 8917 2fbe 2ca3 933d 71ea d9bc
000002b0: 6547 78bd 8750 d5bb d397 edbd 3abd 25be
000002c0: 94d4 09be 8d84 cabd db2a 0a3e 1384 e83d
000002d0: 8a63 0d3d d339 4e3d 7c02 673d fc7f c4bd
000002e0: 0a58 a33d e831 3b3d 3743 09be a51a 08be
000002f0: b68b aabb 7110 943d c888 c33d 7ac1 8b3d
00000300: 784e 23be 7e40 abbc 4212 b0bd 105b e63d
00000310: a7d7 cebd 4ecf 15be 80c2 b43d 6471 363d
00000320: 9a72 2d3c dcd2 2abe aeb7 1cbe 566d 6fbd
00000330: 90d1 313e 5816 f13d 44b7 1a3d 8d00 273d
00000340: eca7 22bd e50f 7d3d a067 133e d78a 183d
00000350: 43fd 993d 94aa 96bc 74e9 833d 0d2d 16be
00000360: 9c6f 8a3d 42ea 633c cc5a 4a3d 7c8b b63c
00000370: 060d 0c3e a21e 30be d4e7 cc3d b4bb 27bb
00000380: f03e 9bba 45d5 0abe 6de3 a23d 064c f23d
00000390: f09e 243e 608a 163d f1e6 a5bb e185 1fba
000003a0: 5579 923d e67b 2cbd d4d2 b83d 3142 213d
000003b0: 5c64 24be e9ad 61bc f9e1 40b9 3456 1c3e
000003c0: 2802 c83d a684 19be 4752 e4bd 280b 133e
000003d0: 0cb3 57bc 3f5d 03bc 15bf 263e eedd 143e
000003e0: 9006 26be 2541 96ba d8ce 793c 4583 1cbe
000003f0: f5e5 983d a88f 3ebd 7bd4 0bbc 8a51 f4bd
-0.076193504 -0.17093676 0.1487634 -0.057954755 0.1425717 -0.02808845 -0.04007609 0.02554138
-0.018363267 0.1733738 0.05514683 -0.13549815 -0.0038855968 -0.1497442 -0.16100109 0.02463862
0.059580803 -0.029870851 -0.14183043 -0.119140446 -0.115125634 0.074801825 0.13095617 -0.15710902
0.13858283 -0.103024736 0.08011832 0.067852095 -0.066959806 0.03147764 0.12880673 -0.13900307
-0.060043707 0.13499439 -0.017736496 0.047015484 -0.1411202 0.04550215 0.029608957 -0.04579322
0.012356938 0.070231475 0.118514076 -0.022396058 -0.11668579 0.083471395 -0.04950912 -0.14316262
0.14729883 0.11524809 0.05683318 -0.04749638 -0.1386803 0.027456503 0.10677002 0.03224097
-0.1387742 0.09638276 -0.15015534 -0.009186658 0.17359051 -0.15415333 -0.09239603 0.14385894
0.06942388 0.06594055 0.10992665 0.09171596 -0.04872794 -0.042264495 0.12780198 -0.14183044
0.08211418 -0.0815224 -0.046119105 0.15845445 -0.14373729 0.038046535 -0.10325164 -0.14310841
-0.1681049 0.024121862 -0.054662496 0.11535148 -0.14141536 -0.0932491 -0.15849859 0.10416655
0.14027631 0.023093047 -0.17352714 -0.10650092 -0.07930702 -0.12527472 -0.104699165 -0.010191494
-0.06883742 0.04171056 -0.042666916 0.07899774 0.050095413 -0.14364003 -0.121573985 0.16181462
-0.12932247 0.08837567 -0.09472656 -0.15777697 -0.081148 0.07191545 -0.025488244 -0.13261262
0.108848095 0.111271486 0.17453204 0.082691 -0.03994346 0.012757444 0.06759314 -0.06615053
-0.12508334 -0.039613172 0.059585765 0.05742436 0.11316957 -0.09041291 0.027101992 -0.052995566
0.1444057 0.019575736 -0.04264931 0.12732951 -0.115197115 0.17267695 -0.06469492 0.02151231
0.09870913 0.16962881 -0.029672043 -0.0021505596 0.07457884 0.07861754 0.14901152 -0.09577933
-0.058154125 -0.016137356 -0.16768606 0.13973215 0.035956353 -0.089926176 0.17536436 0.033512928
0.17476696 0.1761749 0.029028632 0.14310677 -0.0050777947 -0.012713526 -0.15772657 -0.012803487
-0.08011106 0.12646337 -0.019049538 -0.09775128 0.015292489 0.1580428 -0.011449178 0.0861462
0.16961455 -0.17098822 0.07208857 -0.026601048 -0.060614962 -0.0065098437 -0.11601224 -0.16185465
-0.13459998 -0.09888563 0.1349291 0.11353316 0.034518756 0.050348114 0.056398854 -0.095947236
0.079757765 0.04570189 -0.13404547 -0.13291414 -0.005204643 0.072296984 0.09547573 0.06824012
-0.15947902 -0.020904776 -0.085972324 0.112478375 -0.10099726 -0.14629862 0.088261604 0.04454173
0.010586405 -0.16681999 -0.15304443 -0.05845388 0.17365098 0.1177184 0.037772432 0.04077201
-0.039710924 0.061782736 0.14394999 0.037241783 0.07519009 -0.018391885 0.06441012 -0.14665623
0.06759569 0.013910832 0.049402997 0.022283308 0.13676843 -0.17199185 0.10005155 -0.0025594058
-0.0011844318 -0.13557918 0.07953534 0.118309066 0.16076255 0.03675306 -0.0050629308 -0.0006085318
0.071520485 -0.042110346 0.09024587 0.039369766 -0.16053909 -0.013774374 -0.00018394728 0.15267259
0.09766036 -0.14992008 -0.11148506 0.14359725 -0.013165247 -0.008017837 0.1628383 0.14537784
-0.16213441 -0.0011463506 0.015247069 -0.1528445 0.07465736 -0.04652372 -0.008534546 -0.11929615
